node {
  name: "global_step/Initializer/zeros"
  op: "Const"
  attr {
    key: "_class"
    value {
      list {
        s: "loc:@global_step"
      }
    }
  }
  attr {
    key: "_output_shapes"
    value {
      list {
        shape {
        }
      }
    }
  }
  attr {
    key: "dtype"
    value {
      type: DT_INT64
    }
  }
  attr {
    key: "value"
    value {
      tensor {
        dtype: DT_INT64
        tensor_shape {
        }
        int64_val: 0
      }
    }
  }
}
node {
  name: "global_step"
  op: "VariableV2"
  attr {
    key: "_class"
    value {
      list {
        s: "loc:@global_step"
      }
    }
  }
  attr {
    key: "_output_shapes"
    value {
      list {
        shape {
        }
      }
    }
  }
  attr {
    key: "container"
    value {
      s: ""
    }
  }
  attr {
    key: "dtype"
    value {
      type: DT_INT64
    }
  }
  attr {
    key: "shape"
    value {
      shape {
      }
    }
  }
  attr {
    key: "shared_name"
    value {
      s: ""
    }
  }
}
node {
  name: "global_step/Assign"
  op: "Assign"
  input: "global_step"
  input: "global_step/Initializer/zeros"
  attr {
    key: "T"
    value {
      type: DT_INT64
    }
  }
  attr {
    key: "_class"
    value {
      list {
        s: "loc:@global_step"
      }
    }
  }
  attr {
    key: "_output_shapes"
    value {
      list {
        shape {
        }
      }
    }
  }
  attr {
    key: "use_locking"
    value {
      b: true
    }
  }
  attr {
    key: "validate_shape"
    value {
      b: true
    }
  }
}
node {
  name: "global_step/read"
  op: "Identity"
  input: "global_step"
  attr {
    key: "T"
    value {
      type: DT_INT64
    }
  }
  attr {
    key: "_class"
    value {
      list {
        s: "loc:@global_step"
      }
    }
  }
  attr {
    key: "_output_shapes"
    value {
      list {
        shape {
        }
      }
    }
  }
}
node {
  name: "global_step/IsVariableInitialized"
  op: "IsVariableInitialized"
  input: "global_step"
  attr {
    key: "_class"
    value {
      list {
        s: "loc:@global_step"
      }
    }
  }
  attr {
    key: "_output_shapes"
    value {
      list {
        shape {
        }
      }
    }
  }
  attr {
    key: "dtype"
    value {
      type: DT_INT64
    }
  }
}
node {
  name: "global_step/cond/Switch"
  op: "Switch"
  input: "global_step/IsVariableInitialized"
  input: "global_step/IsVariableInitialized"
  attr {
    key: "T"
    value {
      type: DT_BOOL
    }
  }
  attr {
    key: "_output_shapes"
    value {
      list {
        shape {
        }
        shape {
        }
      }
    }
  }
}
node {
  name: "global_step/cond/switch_t"
  op: "Identity"
  input: "global_step/cond/Switch:1"
  attr {
    key: "T"
    value {
      type: DT_BOOL
    }
  }
  attr {
    key: "_output_shapes"
    value {
      list {
        shape {
        }
      }
    }
  }
}
node {
  name: "global_step/cond/switch_f"
  op: "Identity"
  input: "global_step/cond/Switch"
  attr {
    key: "T"
    value {
      type: DT_BOOL
    }
  }
  attr {
    key: "_output_shapes"
    value {
      list {
        shape {
        }
      }
    }
  }
}
node {
  name: "global_step/cond/pred_id"
  op: "Identity"
  input: "global_step/IsVariableInitialized"
  attr {
    key: "T"
    value {
      type: DT_BOOL
    }
  }
  attr {
    key: "_output_shapes"
    value {
      list {
        shape {
        }
      }
    }
  }
}
node {
  name: "global_step/cond/read"
  op: "Identity"
  input: "global_step/cond/read/Switch:1"
  attr {
    key: "T"
    value {
      type: DT_INT64
    }
  }
  attr {
    key: "_output_shapes"
    value {
      list {
        shape {
        }
      }
    }
  }
}
node {
  name: "global_step/cond/read/Switch"
  op: "RefSwitch"
  input: "global_step"
  input: "global_step/cond/pred_id"
  attr {
    key: "T"
    value {
      type: DT_INT64
    }
  }
  attr {
    key: "_class"
    value {
      list {
        s: "loc:@global_step"
      }
    }
  }
  attr {
    key: "_output_shapes"
    value {
      list {
        shape {
        }
        shape {
        }
      }
    }
  }
}
node {
  name: "global_step/cond/Switch_1"
  op: "Switch"
  input: "global_step/Initializer/zeros"
  input: "global_step/cond/pred_id"
  attr {
    key: "T"
    value {
      type: DT_INT64
    }
  }
  attr {
    key: "_class"
    value {
      list {
        s: "loc:@global_step"
      }
    }
  }
  attr {
    key: "_output_shapes"
    value {
      list {
        shape {
        }
        shape {
        }
      }
    }
  }
}
node {
  name: "global_step/cond/Merge"
  op: "Merge"
  input: "global_step/cond/Switch_1"
  input: "global_step/cond/read"
  attr {
    key: "N"
    value {
      i: 2
    }
  }
  attr {
    key: "T"
    value {
      type: DT_INT64
    }
  }
  attr {
    key: "_output_shapes"
    value {
      list {
        shape {
        }
        shape {
        }
      }
    }
  }
}
node {
  name: "global_step/add/y"
  op: "Const"
  attr {
    key: "_output_shapes"
    value {
      list {
        shape {
        }
      }
    }
  }
  attr {
    key: "dtype"
    value {
      type: DT_INT64
    }
  }
  attr {
    key: "value"
    value {
      tensor {
        dtype: DT_INT64
        tensor_shape {
        }
        int64_val: 0
      }
    }
  }
}
node {
  name: "global_step/add"
  op: "AddV2"
  input: "global_step/cond/Merge"
  input: "global_step/add/y"
  attr {
    key: "T"
    value {
      type: DT_INT64
    }
  }
  attr {
    key: "_output_shapes"
    value {
      list {
        shape {
        }
      }
    }
  }
}
node {
  name: "list_files/file_pattern"
  op: "Const"
  device: "/device:CPU:0"
  attr {
    key: "_output_shapes"
    value {
      list {
        shape {
        }
      }
    }
  }
  attr {
    key: "dtype"
    value {
      type: DT_STRING
    }
  }
  attr {
    key: "value"
    value {
      tensor {
        dtype: DT_STRING
        tensor_shape {
        }
        string_val: "./taxi-train.csv"
      }
    }
  }
}
node {
  name: "list_files/MatchingFiles"
  op: "MatchingFiles"
  input: "list_files/file_pattern"
  device: "/device:CPU:0"
  attr {
    key: "_output_shapes"
    value {
      list {
        shape {
          dim {
            size: -1
          }
        }
      }
    }
  }
}
node {
  name: "list_files/Shape"
  op: "Shape"
  input: "list_files/MatchingFiles"
  device: "/device:CPU:0"
  attr {
    key: "T"
    value {
      type: DT_STRING
    }
  }
  attr {
    key: "_output_shapes"
    value {
      list {
        shape {
          dim {
            size: 1
          }
        }
      }
    }
  }
  attr {
    key: "out_type"
    value {
      type: DT_INT32
    }
  }
}
node {
  name: "list_files/strided_slice/stack"
  op: "Const"
  device: "/device:CPU:0"
  attr {
    key: "_output_shapes"
    value {
      list {
        shape {
          dim {
            size: 1
          }
        }
      }
    }
  }
  attr {
    key: "dtype"
    value {
      type: DT_INT32
    }
  }
  attr {
    key: "value"
    value {
      tensor {
        dtype: DT_INT32
        tensor_shape {
          dim {
            size: 1
          }
        }
        int_val: 0
      }
    }
  }
}
node {
  name: "list_files/strided_slice/stack_1"
  op: "Const"
  device: "/device:CPU:0"
  attr {
    key: "_output_shapes"
    value {
      list {
        shape {
          dim {
            size: 1
          }
        }
      }
    }
  }
  attr {
    key: "dtype"
    value {
      type: DT_INT32
    }
  }
  attr {
    key: "value"
    value {
      tensor {
        dtype: DT_INT32
        tensor_shape {
          dim {
            size: 1
          }
        }
        int_val: 1
      }
    }
  }
}
node {
  name: "list_files/strided_slice/stack_2"
  op: "Const"
  device: "/device:CPU:0"
  attr {
    key: "_output_shapes"
    value {
      list {
        shape {
          dim {
            size: 1
          }
        }
      }
    }
  }
  attr {
    key: "dtype"
    value {
      type: DT_INT32
    }
  }
  attr {
    key: "value"
    value {
      tensor {
        dtype: DT_INT32
        tensor_shape {
          dim {
            size: 1
          }
        }
        int_val: 1
      }
    }
  }
}
node {
  name: "list_files/strided_slice"
  op: "StridedSlice"
  input: "list_files/Shape"
  input: "list_files/strided_slice/stack"
  input: "list_files/strided_slice/stack_1"
  input: "list_files/strided_slice/stack_2"
  device: "/device:CPU:0"
  attr {
    key: "Index"
    value {
      type: DT_INT32
    }
  }
  attr {
    key: "T"
    value {
      type: DT_INT32
    }
  }
  attr {
    key: "_output_shapes"
    value {
      list {
        shape {
        }
      }
    }
  }
  attr {
    key: "begin_mask"
    value {
      i: 0
    }
  }
  attr {
    key: "ellipsis_mask"
    value {
      i: 0
    }
  }
  attr {
    key: "end_mask"
    value {
      i: 0
    }
  }
  attr {
    key: "new_axis_mask"
    value {
      i: 0
    }
  }
  attr {
    key: "shrink_axis_mask"
    value {
      i: 1
    }
  }
}
node {
  name: "list_files/match_not_empty/y"
  op: "Const"
  device: "/device:CPU:0"
  attr {
    key: "_output_shapes"
    value {
      list {
        shape {
        }
      }
    }
  }
  attr {
    key: "dtype"
    value {
      type: DT_INT32
    }
  }
  attr {
    key: "value"
    value {
      tensor {
        dtype: DT_INT32
        tensor_shape {
        }
        int_val: 0
      }
    }
  }
}
node {
  name: "list_files/match_not_empty"
  op: "Greater"
  input: "list_files/strided_slice"
  input: "list_files/match_not_empty/y"
  device: "/device:CPU:0"
  attr {
    key: "T"
    value {
      type: DT_INT32
    }
  }
  attr {
    key: "_output_shapes"
    value {
      list {
        shape {
        }
      }
    }
  }
}
node {
  name: "list_files/ReduceJoin/Const"
  op: "Const"
  device: "/device:CPU:0"
  attr {
    key: "_output_shapes"
    value {
      list {
        shape {
          dim {
          }
        }
      }
    }
  }
  attr {
    key: "dtype"
    value {
      type: DT_INT32
    }
  }
  attr {
    key: "value"
    value {
      tensor {
        dtype: DT_INT32
        tensor_shape {
          dim {
          }
        }
      }
    }
  }
}
node {
  name: "list_files/ReduceJoin/ReduceJoin"
  op: "ReduceJoin"
  input: "list_files/file_pattern"
  input: "list_files/ReduceJoin/Const"
  device: "/device:CPU:0"
  attr {
    key: "_output_shapes"
    value {
      list {
        shape {
        }
      }
    }
  }
  attr {
    key: "keep_dims"
    value {
      b: false
    }
  }
  attr {
    key: "separator"
    value {
      s: ", "
    }
  }
}
node {
  name: "list_files/message/x"
  op: "Const"
  device: "/device:CPU:0"
  attr {
    key: "_output_shapes"
    value {
      list {
        shape {
        }
      }
    }
  }
  attr {
    key: "dtype"
    value {
      type: DT_STRING
    }
  }
  attr {
    key: "value"
    value {
      tensor {
        dtype: DT_STRING
        tensor_shape {
        }
        string_val: "No files matched pattern: "
      }
    }
  }
}
node {
  name: "list_files/message"
  op: "Add"
  input: "list_files/message/x"
  input: "list_files/ReduceJoin/ReduceJoin"
  device: "/device:CPU:0"
  attr {
    key: "T"
    value {
      type: DT_STRING
    }
  }
  attr {
    key: "_output_shapes"
    value {
      list {
        shape {
        }
      }
    }
  }
}
node {
  name: "list_files/assert_not_empty/Assert"
  op: "Assert"
  input: "list_files/match_not_empty"
  input: "list_files/message"
  device: "/device:CPU:0"
  attr {
    key: "T"
    value {
      list {
        type: DT_STRING
      }
    }
  }
  attr {
    key: "summarize"
    value {
      i: 1
    }
  }
}
node {
  name: "list_files/Identity"
  op: "Identity"
  input: "list_files/MatchingFiles"
  input: "^list_files/assert_not_empty/Assert"
  device: "/device:CPU:0"
  attr {
    key: "T"
    value {
      type: DT_STRING
    }
  }
  attr {
    key: "_output_shapes"
    value {
      list {
        shape {
          dim {
            size: -1
          }
        }
      }
    }
  }
}
node {
  name: "list_files/TensorSliceDataset"
  op: "TensorSliceDataset"
  input: "list_files/Identity"
  device: "/device:CPU:0"
  attr {
    key: "Toutput_types"
    value {
      list {
        type: DT_STRING
      }
    }
  }
  attr {
    key: "_output_shapes"
    value {
      list {
        shape {
        }
      }
    }
  }
  attr {
    key: "output_shapes"
    value {
      list {
        shape {
        }
      }
    }
  }
}
node {
  name: "list_files/Shape_1"
  op: "Shape"
  input: "list_files/Identity"
  device: "/device:CPU:0"
  attr {
    key: "T"
    value {
      type: DT_STRING
    }
  }
  attr {
    key: "_output_shapes"
    value {
      list {
        shape {
          dim {
            size: 1
          }
        }
      }
    }
  }
  attr {
    key: "out_type"
    value {
      type: DT_INT64
    }
  }
}
node {
  name: "list_files/strided_slice_1/stack"
  op: "Const"
  device: "/device:CPU:0"
  attr {
    key: "_output_shapes"
    value {
      list {
        shape {
          dim {
            size: 1
          }
        }
      }
    }
  }
  attr {
    key: "dtype"
    value {
      type: DT_INT32
    }
  }
  attr {
    key: "value"
    value {
      tensor {
        dtype: DT_INT32
        tensor_shape {
          dim {
            size: 1
          }
        }
        int_val: 0
      }
    }
  }
}
node {
  name: "list_files/strided_slice_1/stack_1"
  op: "Const"
  device: "/device:CPU:0"
  attr {
    key: "_output_shapes"
    value {
      list {
        shape {
          dim {
            size: 1
          }
        }
      }
    }
  }
  attr {
    key: "dtype"
    value {
      type: DT_INT32
    }
  }
  attr {
    key: "value"
    value {
      tensor {
        dtype: DT_INT32
        tensor_shape {
          dim {
            size: 1
          }
        }
        int_val: 1
      }
    }
  }
}
node {
  name: "list_files/strided_slice_1/stack_2"
  op: "Const"
  device: "/device:CPU:0"
  attr {
    key: "_output_shapes"
    value {
      list {
        shape {
          dim {
            size: 1
          }
        }
      }
    }
  }
  attr {
    key: "dtype"
    value {
      type: DT_INT32
    }
  }
  attr {
    key: "value"
    value {
      tensor {
        dtype: DT_INT32
        tensor_shape {
          dim {
            size: 1
          }
        }
        int_val: 1
      }
    }
  }
}
node {
  name: "list_files/strided_slice_1"
  op: "StridedSlice"
  input: "list_files/Shape_1"
  input: "list_files/strided_slice_1/stack"
  input: "list_files/strided_slice_1/stack_1"
  input: "list_files/strided_slice_1/stack_2"
  device: "/device:CPU:0"
  attr {
    key: "Index"
    value {
      type: DT_INT32
    }
  }
  attr {
    key: "T"
    value {
      type: DT_INT64
    }
  }
  attr {
    key: "_output_shapes"
    value {
      list {
        shape {
        }
      }
    }
  }
  attr {
    key: "begin_mask"
    value {
      i: 0
    }
  }
  attr {
    key: "ellipsis_mask"
    value {
      i: 0
    }
  }
  attr {
    key: "end_mask"
    value {
      i: 0
    }
  }
  attr {
    key: "new_axis_mask"
    value {
      i: 0
    }
  }
  attr {
    key: "shrink_axis_mask"
    value {
      i: 1
    }
  }
}
node {
  name: "list_files/Maximum/y"
  op: "Const"
  device: "/device:CPU:0"
  attr {
    key: "_output_shapes"
    value {
      list {
        shape {
        }
      }
    }
  }
  attr {
    key: "dtype"
    value {
      type: DT_INT64
    }
  }
  attr {
    key: "value"
    value {
      tensor {
        dtype: DT_INT64
        tensor_shape {
        }
        int64_val: 1
      }
    }
  }
}
node {
  name: "list_files/Maximum"
  op: "Maximum"
  input: "list_files/strided_slice_1"
  input: "list_files/Maximum/y"
  device: "/device:CPU:0"
  attr {
    key: "T"
    value {
      type: DT_INT64
    }
  }
  attr {
    key: "_output_shapes"
    value {
      list {
        shape {
        }
      }
    }
  }
}
node {
  name: "list_files/seed"
  op: "Const"
  device: "/device:CPU:0"
  attr {
    key: "_output_shapes"
    value {
      list {
        shape {
        }
      }
    }
  }
  attr {
    key: "dtype"
    value {
      type: DT_INT64
    }
  }
  attr {
    key: "value"
    value {
      tensor {
        dtype: DT_INT64
        tensor_shape {
        }
        int64_val: 1
      }
    }
  }
}
node {
  name: "list_files/seed2/Const"
  op: "Const"
  device: "/device:CPU:0"
  attr {
    key: "_output_shapes"
    value {
      list {
        shape {
        }
      }
    }
  }
  attr {
    key: "dtype"
    value {
      type: DT_INT64
    }
  }
  attr {
    key: "value"
    value {
      tensor {
        dtype: DT_INT64
        tensor_shape {
        }
        int64_val: 38
      }
    }
  }
}
node {
  name: "list_files/seed2/Equal/y"
  op: "Const"
  device: "/device:CPU:0"
  attr {
    key: "_output_shapes"
    value {
      list {
        shape {
        }
      }
    }
  }
  attr {
    key: "dtype"
    value {
      type: DT_INT64
    }
  }
  attr {
    key: "value"
    value {
      tensor {
        dtype: DT_INT64
        tensor_shape {
        }
        int64_val: 0
      }
    }
  }
}
node {
  name: "list_files/seed2/Equal"
  op: "Equal"
  input: "list_files/seed"
  input: "list_files/seed2/Equal/y"
  device: "/device:CPU:0"
  attr {
    key: "T"
    value {
      type: DT_INT64
    }
  }
  attr {
    key: "_output_shapes"
    value {
      list {
        shape {
        }
      }
    }
  }
  attr {
    key: "incompatible_shape_error"
    value {
      b: true
    }
  }
}
node {
  name: "list_files/seed2/Equal_1/y"
  op: "Const"
  device: "/device:CPU:0"
  attr {
    key: "_output_shapes"
    value {
      list {
        shape {
        }
      }
    }
  }
  attr {
    key: "dtype"
    value {
      type: DT_INT64
    }
  }
  attr {
    key: "value"
    value {
      tensor {
        dtype: DT_INT64
        tensor_shape {
        }
        int64_val: 0
      }
    }
  }
}
node {
  name: "list_files/seed2/Equal_1"
  op: "Equal"
  input: "list_files/seed2/Const"
  input: "list_files/seed2/Equal_1/y"
  device: "/device:CPU:0"
  attr {
    key: "T"
    value {
      type: DT_INT64
    }
  }
  attr {
    key: "_output_shapes"
    value {
      list {
        shape {
        }
      }
    }
  }
  attr {
    key: "incompatible_shape_error"
    value {
      b: true
    }
  }
}
node {
  name: "list_files/seed2/LogicalAnd"
  op: "LogicalAnd"
  input: "list_files/seed2/Equal"
  input: "list_files/seed2/Equal_1"
  device: "/device:CPU:0"
  attr {
    key: "_output_shapes"
    value {
      list {
        shape {
        }
      }
    }
  }
}
node {
  name: "list_files/seed2/Const_1"
  op: "Const"
  device: "/device:CPU:0"
  attr {
    key: "_output_shapes"
    value {
      list {
        shape {
        }
      }
    }
  }
  attr {
    key: "dtype"
    value {
      type: DT_INT64
    }
  }
  attr {
    key: "value"
    value {
      tensor {
        dtype: DT_INT64
        tensor_shape {
        }
        int64_val: 2147483647
      }
    }
  }
}
node {
  name: "list_files/seed2"
  op: "Select"
  input: "list_files/seed2/LogicalAnd"
  input: "list_files/seed2/Const_1"
  input: "list_files/seed2/Const"
  device: "/device:CPU:0"
  attr {
    key: "T"
    value {
      type: DT_INT64
    }
  }
  attr {
    key: "_output_shapes"
    value {
      list {
        shape {
        }
      }
    }
  }
}
node {
  name: "list_files/ShuffleDataset"
  op: "ShuffleDataset"
  input: "list_files/TensorSliceDataset"
  input: "list_files/Maximum"
  input: "list_files/seed"
  input: "list_files/seed2"
  device: "/device:CPU:0"
  attr {
    key: "_output_shapes"
    value {
      list {
        shape {
        }
      }
    }
  }
  attr {
    key: "output_shapes"
    value {
      list {
        shape {
        }
      }
    }
  }
  attr {
    key: "output_types"
    value {
      list {
        type: DT_STRING
      }
    }
  }
  attr {
    key: "reshuffle_each_iteration"
    value {
      b: true
    }
  }
}
node {
  name: "FlatMapDataset"
  op: "FlatMapDataset"
  input: "list_files/ShuffleDataset"
  device: "/device:CPU:0"
  attr {
    key: "Targuments"
    value {
      list {
      }
    }
  }
  attr {
    key: "_output_shapes"
    value {
      list {
        shape {
        }
      }
    }
  }
  attr {
    key: "f"
    value {
      func {
        name: "__inference_Dataset_flat_map_<lambda>_68"
      }
    }
  }
  attr {
    key: "output_shapes"
    value {
      list {
        shape {
        }
      }
    }
  }
  attr {
    key: "output_types"
    value {
      list {
        type: DT_STRING
      }
    }
  }
}
node {
  name: "MapDataset"
  op: "MapDataset"
  input: "FlatMapDataset"
  device: "/device:CPU:0"
  attr {
    key: "Targuments"
    value {
      list {
      }
    }
  }
  attr {
    key: "_output_shapes"
    value {
      list {
        shape {
        }
      }
    }
  }
  attr {
    key: "f"
    value {
      func {
        name: "__inference_Dataset_map__parse_row_106"
      }
    }
  }
  attr {
    key: "output_shapes"
    value {
      list {
        shape {
        }
        shape {
        }
        shape {
        }
        shape {
        }
        shape {
        }
        shape {
        }
        shape {
        }
        shape {
        }
        shape {
        }
        shape {
        }
      }
    }
  }
  attr {
    key: "output_types"
    value {
      list {
        type: DT_INT32
        type: DT_FLOAT
        type: DT_FLOAT
        type: DT_FLOAT
        type: DT_INT32
        type: DT_FLOAT
        type: DT_FLOAT
        type: DT_FLOAT
        type: DT_FLOAT
        type: DT_FLOAT
      }
    }
  }
  attr {
    key: "preserve_cardinality"
    value {
      b: false
    }
  }
  attr {
    key: "use_inter_op_parallelism"
    value {
      b: true
    }
  }
}
node {
  name: "buffer_size"
  op: "Const"
  device: "/device:CPU:0"
  attr {
    key: "_output_shapes"
    value {
      list {
        shape {
        }
      }
    }
  }
  attr {
    key: "dtype"
    value {
      type: DT_INT64
    }
  }
  attr {
    key: "value"
    value {
      tensor {
        dtype: DT_INT64
        tensor_shape {
        }
        int64_val: 1000
      }
    }
  }
}
node {
  name: "seed"
  op: "Const"
  device: "/device:CPU:0"
  attr {
    key: "_output_shapes"
    value {
      list {
        shape {
        }
      }
    }
  }
  attr {
    key: "dtype"
    value {
      type: DT_INT64
    }
  }
  attr {
    key: "value"
    value {
      tensor {
        dtype: DT_INT64
        tensor_shape {
        }
        int64_val: 1
      }
    }
  }
}
node {
  name: "seed2/Const"
  op: "Const"
  device: "/device:CPU:0"
  attr {
    key: "_output_shapes"
    value {
      list {
        shape {
        }
      }
    }
  }
  attr {
    key: "dtype"
    value {
      type: DT_INT64
    }
  }
  attr {
    key: "value"
    value {
      tensor {
        dtype: DT_INT64
        tensor_shape {
        }
        int64_val: 51
      }
    }
  }
}
node {
  name: "seed2/Equal/y"
  op: "Const"
  device: "/device:CPU:0"
  attr {
    key: "_output_shapes"
    value {
      list {
        shape {
        }
      }
    }
  }
  attr {
    key: "dtype"
    value {
      type: DT_INT64
    }
  }
  attr {
    key: "value"
    value {
      tensor {
        dtype: DT_INT64
        tensor_shape {
        }
        int64_val: 0
      }
    }
  }
}
node {
  name: "seed2/Equal"
  op: "Equal"
  input: "seed"
  input: "seed2/Equal/y"
  device: "/device:CPU:0"
  attr {
    key: "T"
    value {
      type: DT_INT64
    }
  }
  attr {
    key: "_output_shapes"
    value {
      list {
        shape {
        }
      }
    }
  }
  attr {
    key: "incompatible_shape_error"
    value {
      b: true
    }
  }
}
node {
  name: "seed2/Equal_1/y"
  op: "Const"
  device: "/device:CPU:0"
  attr {
    key: "_output_shapes"
    value {
      list {
        shape {
        }
      }
    }
  }
  attr {
    key: "dtype"
    value {
      type: DT_INT64
    }
  }
  attr {
    key: "value"
    value {
      tensor {
        dtype: DT_INT64
        tensor_shape {
        }
        int64_val: 0
      }
    }
  }
}
node {
  name: "seed2/Equal_1"
  op: "Equal"
  input: "seed2/Const"
  input: "seed2/Equal_1/y"
  device: "/device:CPU:0"
  attr {
    key: "T"
    value {
      type: DT_INT64
    }
  }
  attr {
    key: "_output_shapes"
    value {
      list {
        shape {
        }
      }
    }
  }
  attr {
    key: "incompatible_shape_error"
    value {
      b: true
    }
  }
}
node {
  name: "seed2/LogicalAnd"
  op: "LogicalAnd"
  input: "seed2/Equal"
  input: "seed2/Equal_1"
  device: "/device:CPU:0"
  attr {
    key: "_output_shapes"
    value {
      list {
        shape {
        }
      }
    }
  }
}
node {
  name: "seed2/Const_1"
  op: "Const"
  device: "/device:CPU:0"
  attr {
    key: "_output_shapes"
    value {
      list {
        shape {
        }
      }
    }
  }
  attr {
    key: "dtype"
    value {
      type: DT_INT64
    }
  }
  attr {
    key: "value"
    value {
      tensor {
        dtype: DT_INT64
        tensor_shape {
        }
        int64_val: 2147483647
      }
    }
  }
}
node {
  name: "seed2"
  op: "Select"
  input: "seed2/LogicalAnd"
  input: "seed2/Const_1"
  input: "seed2/Const"
  device: "/device:CPU:0"
  attr {
    key: "T"
    value {
      type: DT_INT64
    }
  }
  attr {
    key: "_output_shapes"
    value {
      list {
        shape {
        }
      }
    }
  }
}
node {
  name: "ShuffleDataset"
  op: "ShuffleDataset"
  input: "MapDataset"
  input: "buffer_size"
  input: "seed"
  input: "seed2"
  device: "/device:CPU:0"
  attr {
    key: "_output_shapes"
    value {
      list {
        shape {
        }
      }
    }
  }
  attr {
    key: "output_shapes"
    value {
      list {
        shape {
        }
        shape {
        }
        shape {
        }
        shape {
        }
        shape {
        }
        shape {
        }
        shape {
        }
        shape {
        }
        shape {
        }
        shape {
        }
      }
    }
  }
  attr {
    key: "output_types"
    value {
      list {
        type: DT_INT32
        type: DT_FLOAT
        type: DT_FLOAT
        type: DT_FLOAT
        type: DT_INT32
        type: DT_FLOAT
        type: DT_FLOAT
        type: DT_FLOAT
        type: DT_FLOAT
        type: DT_FLOAT
      }
    }
  }
  attr {
    key: "reshuffle_each_iteration"
    value {
      b: true
    }
  }
}
node {
  name: "count"
  op: "Const"
  device: "/device:CPU:0"
  attr {
    key: "_output_shapes"
    value {
      list {
        shape {
        }
      }
    }
  }
  attr {
    key: "dtype"
    value {
      type: DT_INT64
    }
  }
  attr {
    key: "value"
    value {
      tensor {
        dtype: DT_INT64
        tensor_shape {
        }
        int64_val: -1
      }
    }
  }
}
node {
  name: "RepeatDataset"
  op: "RepeatDataset"
  input: "ShuffleDataset"
  input: "count"
  device: "/device:CPU:0"
  attr {
    key: "_output_shapes"
    value {
      list {
        shape {
        }
      }
    }
  }
  attr {
    key: "output_shapes"
    value {
      list {
        shape {
        }
        shape {
        }
        shape {
        }
        shape {
        }
        shape {
        }
        shape {
        }
        shape {
        }
        shape {
        }
        shape {
        }
        shape {
        }
      }
    }
  }
  attr {
    key: "output_types"
    value {
      list {
        type: DT_INT32
        type: DT_FLOAT
        type: DT_FLOAT
        type: DT_FLOAT
        type: DT_INT32
        type: DT_FLOAT
        type: DT_FLOAT
        type: DT_FLOAT
        type: DT_FLOAT
        type: DT_FLOAT
      }
    }
  }
}
node {
  name: "batch_size"
  op: "Const"
  device: "/device:CPU:0"
  attr {
    key: "_output_shapes"
    value {
      list {
        shape {
        }
      }
    }
  }
  attr {
    key: "dtype"
    value {
      type: DT_INT64
    }
  }
  attr {
    key: "value"
    value {
      tensor {
        dtype: DT_INT64
        tensor_shape {
        }
        int64_val: 128
      }
    }
  }
}
node {
  name: "drop_remainder"
  op: "Const"
  device: "/device:CPU:0"
  attr {
    key: "_output_shapes"
    value {
      list {
        shape {
        }
      }
    }
  }
  attr {
    key: "dtype"
    value {
      type: DT_BOOL
    }
  }
  attr {
    key: "value"
    value {
      tensor {
        dtype: DT_BOOL
        tensor_shape {
        }
        bool_val: false
      }
    }
  }
}
node {
  name: "BatchDatasetV2"
  op: "BatchDatasetV2"
  input: "RepeatDataset"
  input: "batch_size"
  input: "drop_remainder"
  device: "/device:CPU:0"
  attr {
    key: "_output_shapes"
    value {
      list {
        shape {
        }
      }
    }
  }
  attr {
    key: "output_shapes"
    value {
      list {
        shape {
          dim {
            size: -1
          }
        }
        shape {
          dim {
            size: -1
          }
        }
        shape {
          dim {
            size: -1
          }
        }
        shape {
          dim {
            size: -1
          }
        }
        shape {
          dim {
            size: -1
          }
        }
        shape {
          dim {
            size: -1
          }
        }
        shape {
          dim {
            size: -1
          }
        }
        shape {
          dim {
            size: -1
          }
        }
        shape {
          dim {
            size: -1
          }
        }
        shape {
          dim {
            size: -1
          }
        }
      }
    }
  }
  attr {
    key: "output_types"
    value {
      list {
        type: DT_INT32
        type: DT_FLOAT
        type: DT_FLOAT
        type: DT_FLOAT
        type: DT_INT32
        type: DT_FLOAT
        type: DT_FLOAT
        type: DT_FLOAT
        type: DT_FLOAT
        type: DT_FLOAT
      }
    }
  }
  attr {
    key: "parallel_copy"
    value {
      b: false
    }
  }
}
node {
  name: "optimizations"
  op: "Const"
  attr {
    key: "_output_shapes"
    value {
      list {
        shape {
          dim {
            size: 3
          }
        }
      }
    }
  }
  attr {
    key: "dtype"
    value {
      type: DT_STRING
    }
  }
  attr {
    key: "value"
    value {
      tensor {
        dtype: DT_STRING
        tensor_shape {
          dim {
            size: 3
          }
        }
        string_val: "map_and_batch_fusion"
        string_val: "noop_elimination"
        string_val: "shuffle_and_repeat_fusion"
      }
    }
  }
}
node {
  name: "OptimizeDataset"
  op: "OptimizeDataset"
  input: "BatchDatasetV2"
  input: "optimizations"
  attr {
    key: "_output_shapes"
    value {
      list {
        shape {
        }
      }
    }
  }
  attr {
    key: "optimization_configs"
    value {
      list {
        s: "map_vectorization:use_choose_fastest:false"
      }
    }
  }
  attr {
    key: "output_shapes"
    value {
      list {
        shape {
          dim {
            size: -1
          }
        }
        shape {
          dim {
            size: -1
          }
        }
        shape {
          dim {
            size: -1
          }
        }
        shape {
          dim {
            size: -1
          }
        }
        shape {
          dim {
            size: -1
          }
        }
        shape {
          dim {
            size: -1
          }
        }
        shape {
          dim {
            size: -1
          }
        }
        shape {
          dim {
            size: -1
          }
        }
        shape {
          dim {
            size: -1
          }
        }
        shape {
          dim {
            size: -1
          }
        }
      }
    }
  }
  attr {
    key: "output_types"
    value {
      list {
        type: DT_INT32
        type: DT_FLOAT
        type: DT_FLOAT
        type: DT_FLOAT
        type: DT_INT32
        type: DT_FLOAT
        type: DT_FLOAT
        type: DT_FLOAT
        type: DT_FLOAT
        type: DT_FLOAT
      }
    }
  }
}
node {
  name: "ModelDataset"
  op: "ModelDataset"
  input: "OptimizeDataset"
  attr {
    key: "_output_shapes"
    value {
      list {
        shape {
        }
      }
    }
  }
  attr {
    key: "algorithm"
    value {
      i: 0
    }
  }
  attr {
    key: "cpu_budget"
    value {
      i: 0
    }
  }
  attr {
    key: "output_shapes"
    value {
      list {
        shape {
          dim {
            size: -1
          }
        }
        shape {
          dim {
            size: -1
          }
        }
        shape {
          dim {
            size: -1
          }
        }
        shape {
          dim {
            size: -1
          }
        }
        shape {
          dim {
            size: -1
          }
        }
        shape {
          dim {
            size: -1
          }
        }
        shape {
          dim {
            size: -1
          }
        }
        shape {
          dim {
            size: -1
          }
        }
        shape {
          dim {
            size: -1
          }
        }
        shape {
          dim {
            size: -1
          }
        }
      }
    }
  }
  attr {
    key: "output_types"
    value {
      list {
        type: DT_INT32
        type: DT_FLOAT
        type: DT_FLOAT
        type: DT_FLOAT
        type: DT_INT32
        type: DT_FLOAT
        type: DT_FLOAT
        type: DT_FLOAT
        type: DT_FLOAT
        type: DT_FLOAT
      }
    }
  }
}
node {
  name: "IteratorV2"
  op: "IteratorV2"
  attr {
    key: "_output_shapes"
    value {
      list {
        shape {
        }
      }
    }
  }
  attr {
    key: "container"
    value {
      s: ""
    }
  }
  attr {
    key: "output_shapes"
    value {
      list {
        shape {
          dim {
            size: -1
          }
        }
        shape {
          dim {
            size: -1
          }
        }
        shape {
          dim {
            size: -1
          }
        }
        shape {
          dim {
            size: -1
          }
        }
        shape {
          dim {
            size: -1
          }
        }
        shape {
          dim {
            size: -1
          }
        }
        shape {
          dim {
            size: -1
          }
        }
        shape {
          dim {
            size: -1
          }
        }
        shape {
          dim {
            size: -1
          }
        }
        shape {
          dim {
            size: -1
          }
        }
      }
    }
  }
  attr {
    key: "output_types"
    value {
      list {
        type: DT_INT32
        type: DT_FLOAT
        type: DT_FLOAT
        type: DT_FLOAT
        type: DT_INT32
        type: DT_FLOAT
        type: DT_FLOAT
        type: DT_FLOAT
        type: DT_FLOAT
        type: DT_FLOAT
      }
    }
  }
  attr {
    key: "shared_name"
    value {
      s: ""
    }
  }
}
node {
  name: "MakeIterator"
  op: "MakeIterator"
  input: "ModelDataset"
  input: "IteratorV2"
  attr {
    key: "_class"
    value {
      list {
        s: "loc:@IteratorV2"
      }
    }
  }
}
node {
  name: "IteratorToStringHandle"
  op: "IteratorToStringHandle"
  input: "IteratorV2"
  attr {
    key: "_output_shapes"
    value {
      list {
        shape {
        }
      }
    }
  }
}
node {
  name: "IteratorGetNext"
  op: "IteratorGetNext"
  input: "IteratorV2"
  attr {
    key: "_output_shapes"
    value {
      list {
        shape {
          dim {
            size: -1
          }
        }
        shape {
          dim {
            size: -1
          }
        }
        shape {
          dim {
            size: -1
          }
        }
        shape {
          dim {
            size: -1
          }
        }
        shape {
          dim {
            size: -1
          }
        }
        shape {
          dim {
            size: -1
          }
        }
        shape {
          dim {
            size: -1
          }
        }
        shape {
          dim {
            size: -1
          }
        }
        shape {
          dim {
            size: -1
          }
        }
        shape {
          dim {
            size: -1
          }
        }
      }
    }
  }
  attr {
    key: "output_shapes"
    value {
      list {
        shape {
          dim {
            size: -1
          }
        }
        shape {
          dim {
            size: -1
          }
        }
        shape {
          dim {
            size: -1
          }
        }
        shape {
          dim {
            size: -1
          }
        }
        shape {
          dim {
            size: -1
          }
        }
        shape {
          dim {
            size: -1
          }
        }
        shape {
          dim {
            size: -1
          }
        }
        shape {
          dim {
            size: -1
          }
        }
        shape {
          dim {
            size: -1
          }
        }
        shape {
          dim {
            size: -1
          }
        }
      }
    }
  }
  attr {
    key: "output_types"
    value {
      list {
        type: DT_INT32
        type: DT_FLOAT
        type: DT_FLOAT
        type: DT_FLOAT
        type: DT_INT32
        type: DT_FLOAT
        type: DT_FLOAT
        type: DT_FLOAT
        type: DT_FLOAT
        type: DT_FLOAT
      }
    }
  }
}
node {
  name: "dnn/input_from_feature_columns/input_layer/dayofweek_X_hourofday_embedding/embedding_weights/part_0/Initializer/truncated_normal/shape"
  op: "Const"
  attr {
    key: "_class"
    value {
      list {
        s: "loc:@dnn/input_from_feature_columns/input_layer/dayofweek_X_hourofday_embedding/embedding_weights/part_0"
      }
    }
  }
  attr {
    key: "_output_shapes"
    value {
      list {
        shape {
          dim {
            size: 2
          }
        }
      }
    }
  }
  attr {
    key: "dtype"
    value {
      type: DT_INT32
    }
  }
  attr {
    key: "value"
    value {
      tensor {
        dtype: DT_INT32
        tensor_shape {
          dim {
            size: 2
          }
        }
        tensor_content: "\250\000\000\000\n\000\000\000"
      }
    }
  }
}
node {
  name: "dnn/input_from_feature_columns/input_layer/dayofweek_X_hourofday_embedding/embedding_weights/part_0/Initializer/truncated_normal/mean"
  op: "Const"
  attr {
    key: "_class"
    value {
      list {
        s: "loc:@dnn/input_from_feature_columns/input_layer/dayofweek_X_hourofday_embedding/embedding_weights/part_0"
      }
    }
  }
  attr {
    key: "_output_shapes"
    value {
      list {
        shape {
        }
      }
    }
  }
  attr {
    key: "dtype"
    value {
      type: DT_FLOAT
    }
  }
  attr {
    key: "value"
    value {
      tensor {
        dtype: DT_FLOAT
        tensor_shape {
        }
        float_val: 0.0
      }
    }
  }
}
node {
  name: "dnn/input_from_feature_columns/input_layer/dayofweek_X_hourofday_embedding/embedding_weights/part_0/Initializer/truncated_normal/stddev"
  op: "Const"
  attr {
    key: "_class"
    value {
      list {
        s: "loc:@dnn/input_from_feature_columns/input_layer/dayofweek_X_hourofday_embedding/embedding_weights/part_0"
      }
    }
  }
  attr {
    key: "_output_shapes"
    value {
      list {
        shape {
        }
      }
    }
  }
  attr {
    key: "dtype"
    value {
      type: DT_FLOAT
    }
  }
  attr {
    key: "value"
    value {
      tensor {
        dtype: DT_FLOAT
        tensor_shape {
        }
        float_val: 0.3162277638912201
      }
    }
  }
}
node {
  name: "dnn/input_from_feature_columns/input_layer/dayofweek_X_hourofday_embedding/embedding_weights/part_0/Initializer/truncated_normal/TruncatedNormal"
  op: "TruncatedNormal"
  input: "dnn/input_from_feature_columns/input_layer/dayofweek_X_hourofday_embedding/embedding_weights/part_0/Initializer/truncated_normal/shape"
  attr {
    key: "T"
    value {
      type: DT_INT32
    }
  }
  attr {
    key: "_class"
    value {
      list {
        s: "loc:@dnn/input_from_feature_columns/input_layer/dayofweek_X_hourofday_embedding/embedding_weights/part_0"
      }
    }
  }
  attr {
    key: "_output_shapes"
    value {
      list {
        shape {
          dim {
            size: 168
          }
          dim {
            size: 10
          }
        }
      }
    }
  }
  attr {
    key: "dtype"
    value {
      type: DT_FLOAT
    }
  }
  attr {
    key: "seed"
    value {
      i: 1
    }
  }
  attr {
    key: "seed2"
    value {
      i: 76
    }
  }
}
node {
  name: "dnn/input_from_feature_columns/input_layer/dayofweek_X_hourofday_embedding/embedding_weights/part_0/Initializer/truncated_normal/mul"
  op: "Mul"
  input: "dnn/input_from_feature_columns/input_layer/dayofweek_X_hourofday_embedding/embedding_weights/part_0/Initializer/truncated_normal/TruncatedNormal"
  input: "dnn/input_from_feature_columns/input_layer/dayofweek_X_hourofday_embedding/embedding_weights/part_0/Initializer/truncated_normal/stddev"
  attr {
    key: "T"
    value {
      type: DT_FLOAT
    }
  }
  attr {
    key: "_class"
    value {
      list {
        s: "loc:@dnn/input_from_feature_columns/input_layer/dayofweek_X_hourofday_embedding/embedding_weights/part_0"
      }
    }
  }
  attr {
    key: "_output_shapes"
    value {
      list {
        shape {
          dim {
            size: 168
          }
          dim {
            size: 10
          }
        }
      }
    }
  }
}
node {
  name: "dnn/input_from_feature_columns/input_layer/dayofweek_X_hourofday_embedding/embedding_weights/part_0/Initializer/truncated_normal"
  op: "Add"
  input: "dnn/input_from_feature_columns/input_layer/dayofweek_X_hourofday_embedding/embedding_weights/part_0/Initializer/truncated_normal/mul"
  input: "dnn/input_from_feature_columns/input_layer/dayofweek_X_hourofday_embedding/embedding_weights/part_0/Initializer/truncated_normal/mean"
  attr {
    key: "T"
    value {
      type: DT_FLOAT
    }
  }
  attr {
    key: "_class"
    value {
      list {
        s: "loc:@dnn/input_from_feature_columns/input_layer/dayofweek_X_hourofday_embedding/embedding_weights/part_0"
      }
    }
  }
  attr {
    key: "_output_shapes"
    value {
      list {
        shape {
          dim {
            size: 168
          }
          dim {
            size: 10
          }
        }
      }
    }
  }
}
node {
  name: "dnn/input_from_feature_columns/input_layer/dayofweek_X_hourofday_embedding/embedding_weights/part_0"
  op: "VarHandleOp"
  attr {
    key: "_class"
    value {
      list {
        s: "loc:@dnn/input_from_feature_columns/input_layer/dayofweek_X_hourofday_embedding/embedding_weights/part_0"
      }
    }
  }
  attr {
    key: "_output_shapes"
    value {
      list {
        shape {
        }
      }
    }
  }
  attr {
    key: "container"
    value {
      s: ""
    }
  }
  attr {
    key: "dtype"
    value {
      type: DT_FLOAT
    }
  }
  attr {
    key: "shape"
    value {
      shape {
        dim {
          size: 168
        }
        dim {
          size: 10
        }
      }
    }
  }
  attr {
    key: "shared_name"
    value {
      s: "dnn/input_from_feature_columns/input_layer/dayofweek_X_hourofday_embedding/embedding_weights/part_0"
    }
  }
}
node {
  name: "dnn/input_from_feature_columns/input_layer/dayofweek_X_hourofday_embedding/embedding_weights/part_0/IsInitialized/VarIsInitializedOp"
  op: "VarIsInitializedOp"
  input: "dnn/input_from_feature_columns/input_layer/dayofweek_X_hourofday_embedding/embedding_weights/part_0"
  attr {
    key: "_output_shapes"
    value {
      list {
        shape {
        }
      }
    }
  }
}
node {
  name: "dnn/input_from_feature_columns/input_layer/dayofweek_X_hourofday_embedding/embedding_weights/part_0/Assign"
  op: "AssignVariableOp"
  input: "dnn/input_from_feature_columns/input_layer/dayofweek_X_hourofday_embedding/embedding_weights/part_0"
  input: "dnn/input_from_feature_columns/input_layer/dayofweek_X_hourofday_embedding/embedding_weights/part_0/Initializer/truncated_normal"
  attr {
    key: "dtype"
    value {
      type: DT_FLOAT
    }
  }
}
node {
  name: "dnn/input_from_feature_columns/input_layer/dayofweek_X_hourofday_embedding/embedding_weights/part_0/Read/ReadVariableOp"
  op: "ReadVariableOp"
  input: "dnn/input_from_feature_columns/input_layer/dayofweek_X_hourofday_embedding/embedding_weights/part_0"
  attr {
    key: "_output_shapes"
    value {
      list {
        shape {
          dim {
            size: 168
          }
          dim {
            size: 10
          }
        }
      }
    }
  }
  attr {
    key: "dtype"
    value {
      type: DT_FLOAT
    }
  }
}
node {
  name: "dnn/input_from_feature_columns/input_layer/dropofflat_bucketized_X_dropofflon_bucketized_X_pickuplat_bucketized_X_pickuplon_bucketized_embedding/embedding_weights/part_0/Initializer/truncated_normal/shape"
  op: "Const"
  attr {
    key: "_class"
    value {
      list {
        s: "loc:@dnn/input_from_feature_columns/input_layer/dropofflat_bucketized_X_dropofflon_bucketized_X_pickuplat_bucketized_X_pickuplon_bucketized_embedding/embedding_weights/part_0"
      }
    }
  }
  attr {
    key: "_output_shapes"
    value {
      list {
        shape {
          dim {
            size: 2
          }
        }
      }
    }
  }
  attr {
    key: "dtype"
    value {
      type: DT_INT32
    }
  }
  attr {
    key: "value"
    value {
      tensor {
        dtype: DT_INT32
        tensor_shape {
          dim {
            size: 2
          }
        }
        tensor_content: "\000\000\001\000\n\000\000\000"
      }
    }
  }
}
node {
  name: "dnn/input_from_feature_columns/input_layer/dropofflat_bucketized_X_dropofflon_bucketized_X_pickuplat_bucketized_X_pickuplon_bucketized_embedding/embedding_weights/part_0/Initializer/truncated_normal/mean"
  op: "Const"
  attr {
    key: "_class"
    value {
      list {
        s: "loc:@dnn/input_from_feature_columns/input_layer/dropofflat_bucketized_X_dropofflon_bucketized_X_pickuplat_bucketized_X_pickuplon_bucketized_embedding/embedding_weights/part_0"
      }
    }
  }
  attr {
    key: "_output_shapes"
    value {
      list {
        shape {
        }
      }
    }
  }
  attr {
    key: "dtype"
    value {
      type: DT_FLOAT
    }
  }
  attr {
    key: "value"
    value {
      tensor {
        dtype: DT_FLOAT
        tensor_shape {
        }
        float_val: 0.0
      }
    }
  }
}
node {
  name: "dnn/input_from_feature_columns/input_layer/dropofflat_bucketized_X_dropofflon_bucketized_X_pickuplat_bucketized_X_pickuplon_bucketized_embedding/embedding_weights/part_0/Initializer/truncated_normal/stddev"
  op: "Const"
  attr {
    key: "_class"
    value {
      list {
        s: "loc:@dnn/input_from_feature_columns/input_layer/dropofflat_bucketized_X_dropofflon_bucketized_X_pickuplat_bucketized_X_pickuplon_bucketized_embedding/embedding_weights/part_0"
      }
    }
  }
  attr {
    key: "_output_shapes"
    value {
      list {
        shape {
        }
      }
    }
  }
  attr {
    key: "dtype"
    value {
      type: DT_FLOAT
    }
  }
  attr {
    key: "value"
    value {
      tensor {
        dtype: DT_FLOAT
        tensor_shape {
        }
        float_val: 0.3162277638912201
      }
    }
  }
}
node {
  name: "dnn/input_from_feature_columns/input_layer/dropofflat_bucketized_X_dropofflon_bucketized_X_pickuplat_bucketized_X_pickuplon_bucketized_embedding/embedding_weights/part_0/Initializer/truncated_normal/TruncatedNormal"
  op: "TruncatedNormal"
  input: "dnn/input_from_feature_columns/input_layer/dropofflat_bucketized_X_dropofflon_bucketized_X_pickuplat_bucketized_X_pickuplon_bucketized_embedding/embedding_weights/part_0/Initializer/truncated_normal/shape"
  attr {
    key: "T"
    value {
      type: DT_INT32
    }
  }
  attr {
    key: "_class"
    value {
      list {
        s: "loc:@dnn/input_from_feature_columns/input_layer/dropofflat_bucketized_X_dropofflon_bucketized_X_pickuplat_bucketized_X_pickuplon_bucketized_embedding/embedding_weights/part_0"
      }
    }
  }
  attr {
    key: "_output_shapes"
    value {
      list {
        shape {
          dim {
            size: 65536
          }
          dim {
            size: 10
          }
        }
      }
    }
  }
  attr {
    key: "dtype"
    value {
      type: DT_FLOAT
    }
  }
  attr {
    key: "seed"
    value {
      i: 1
    }
  }
  attr {
    key: "seed2"
    value {
      i: 86
    }
  }
}
node {
  name: "dnn/input_from_feature_columns/input_layer/dropofflat_bucketized_X_dropofflon_bucketized_X_pickuplat_bucketized_X_pickuplon_bucketized_embedding/embedding_weights/part_0/Initializer/truncated_normal/mul"
  op: "Mul"
  input: "dnn/input_from_feature_columns/input_layer/dropofflat_bucketized_X_dropofflon_bucketized_X_pickuplat_bucketized_X_pickuplon_bucketized_embedding/embedding_weights/part_0/Initializer/truncated_normal/TruncatedNormal"
  input: "dnn/input_from_feature_columns/input_layer/dropofflat_bucketized_X_dropofflon_bucketized_X_pickuplat_bucketized_X_pickuplon_bucketized_embedding/embedding_weights/part_0/Initializer/truncated_normal/stddev"
  attr {
    key: "T"
    value {
      type: DT_FLOAT
    }
  }
  attr {
    key: "_class"
    value {
      list {
        s: "loc:@dnn/input_from_feature_columns/input_layer/dropofflat_bucketized_X_dropofflon_bucketized_X_pickuplat_bucketized_X_pickuplon_bucketized_embedding/embedding_weights/part_0"
      }
    }
  }
  attr {
    key: "_output_shapes"
    value {
      list {
        shape {
          dim {
            size: 65536
          }
          dim {
            size: 10
          }
        }
      }
    }
  }
}
node {
  name: "dnn/input_from_feature_columns/input_layer/dropofflat_bucketized_X_dropofflon_bucketized_X_pickuplat_bucketized_X_pickuplon_bucketized_embedding/embedding_weights/part_0/Initializer/truncated_normal"
  op: "Add"
  input: "dnn/input_from_feature_columns/input_layer/dropofflat_bucketized_X_dropofflon_bucketized_X_pickuplat_bucketized_X_pickuplon_bucketized_embedding/embedding_weights/part_0/Initializer/truncated_normal/mul"
  input: "dnn/input_from_feature_columns/input_layer/dropofflat_bucketized_X_dropofflon_bucketized_X_pickuplat_bucketized_X_pickuplon_bucketized_embedding/embedding_weights/part_0/Initializer/truncated_normal/mean"
  attr {
    key: "T"
    value {
      type: DT_FLOAT
    }
  }
  attr {
    key: "_class"
    value {
      list {
        s: "loc:@dnn/input_from_feature_columns/input_layer/dropofflat_bucketized_X_dropofflon_bucketized_X_pickuplat_bucketized_X_pickuplon_bucketized_embedding/embedding_weights/part_0"
      }
    }
  }
  attr {
    key: "_output_shapes"
    value {
      list {
        shape {
          dim {
            size: 65536
          }
          dim {
            size: 10
          }
        }
      }
    }
  }
}
node {
  name: "dnn/input_from_feature_columns/input_layer/dropofflat_bucketized_X_dropofflon_bucketized_X_pickuplat_bucketized_X_pickuplon_bucketized_embedding/embedding_weights/part_0"
  op: "VarHandleOp"
  attr {
    key: "_class"
    value {
      list {
        s: "loc:@dnn/input_from_feature_columns/input_layer/dropofflat_bucketized_X_dropofflon_bucketized_X_pickuplat_bucketized_X_pickuplon_bucketized_embedding/embedding_weights/part_0"
      }
    }
  }
  attr {
    key: "_output_shapes"
    value {
      list {
        shape {
        }
      }
    }
  }
  attr {
    key: "container"
    value {
      s: ""
    }
  }
  attr {
    key: "dtype"
    value {
      type: DT_FLOAT
    }
  }
  attr {
    key: "shape"
    value {
      shape {
        dim {
          size: 65536
        }
        dim {
          size: 10
        }
      }
    }
  }
  attr {
    key: "shared_name"
    value {
      s: "dnn/input_from_feature_columns/input_layer/dropofflat_bucketized_X_dropofflon_bucketized_X_pickuplat_bucketized_X_pickuplon_bucketized_embedding/embedding_weights/part_0"
    }
  }
}
node {
  name: "dnn/input_from_feature_columns/input_layer/dropofflat_bucketized_X_dropofflon_bucketized_X_pickuplat_bucketized_X_pickuplon_bucketized_embedding/embedding_weights/part_0/IsInitialized/VarIsInitializedOp"
  op: "VarIsInitializedOp"
  input: "dnn/input_from_feature_columns/input_layer/dropofflat_bucketized_X_dropofflon_bucketized_X_pickuplat_bucketized_X_pickuplon_bucketized_embedding/embedding_weights/part_0"
  attr {
    key: "_output_shapes"
    value {
      list {
        shape {
        }
      }
    }
  }
}
node {
  name: "dnn/input_from_feature_columns/input_layer/dropofflat_bucketized_X_dropofflon_bucketized_X_pickuplat_bucketized_X_pickuplon_bucketized_embedding/embedding_weights/part_0/Assign"
  op: "AssignVariableOp"
  input: "dnn/input_from_feature_columns/input_layer/dropofflat_bucketized_X_dropofflon_bucketized_X_pickuplat_bucketized_X_pickuplon_bucketized_embedding/embedding_weights/part_0"
  input: "dnn/input_from_feature_columns/input_layer/dropofflat_bucketized_X_dropofflon_bucketized_X_pickuplat_bucketized_X_pickuplon_bucketized_embedding/embedding_weights/part_0/Initializer/truncated_normal"
  attr {
    key: "dtype"
    value {
      type: DT_FLOAT
    }
  }
}
node {
  name: "dnn/input_from_feature_columns/input_layer/dropofflat_bucketized_X_dropofflon_bucketized_X_pickuplat_bucketized_X_pickuplon_bucketized_embedding/embedding_weights/part_0/Read/ReadVariableOp"
  op: "ReadVariableOp"
  input: "dnn/input_from_feature_columns/input_layer/dropofflat_bucketized_X_dropofflon_bucketized_X_pickuplat_bucketized_X_pickuplon_bucketized_embedding/embedding_weights/part_0"
  attr {
    key: "_output_shapes"
    value {
      list {
        shape {
          dim {
            size: 65536
          }
          dim {
            size: 10
          }
        }
      }
    }
  }
  attr {
    key: "dtype"
    value {
      type: DT_FLOAT
    }
  }
}
node {
  name: "dnn/input_from_feature_columns/input_layer/dayofweek_X_hourofday_embedding/ExpandDims/dim"
  op: "Const"
  attr {
    key: "_output_shapes"
    value {
      list {
        shape {
        }
      }
    }
  }
  attr {
    key: "dtype"
    value {
      type: DT_INT32
    }
  }
  attr {
    key: "value"
    value {
      tensor {
        dtype: DT_INT32
        tensor_shape {
        }
        int_val: -1
      }
    }
  }
}
node {
  name: "dnn/input_from_feature_columns/input_layer/dayofweek_X_hourofday_embedding/ExpandDims"
  op: "ExpandDims"
  input: "IteratorGetNext"
  input: "dnn/input_from_feature_columns/input_layer/dayofweek_X_hourofday_embedding/ExpandDims/dim"
  attr {
    key: "T"
    value {
      type: DT_INT32
    }
  }
  attr {
    key: "Tdim"
    value {
      type: DT_INT32
    }
  }
  attr {
    key: "_output_shapes"
    value {
      list {
        shape {
          dim {
            size: -1
          }
          dim {
            size: 1
          }
        }
      }
    }
  }
}
node {
  name: "dnn/input_from_feature_columns/input_layer/dayofweek_X_hourofday_embedding/to_sparse_input/ignore_value/x"
  op: "Const"
  attr {
    key: "_output_shapes"
    value {
      list {
        shape {
        }
      }
    }
  }
  attr {
    key: "dtype"
    value {
      type: DT_INT32
    }
  }
  attr {
    key: "value"
    value {
      tensor {
        dtype: DT_INT32
        tensor_shape {
        }
        int_val: -1
      }
    }
  }
}
node {
  name: "dnn/input_from_feature_columns/input_layer/dayofweek_X_hourofday_embedding/to_sparse_input/NotEqual"
  op: "NotEqual"
  input: "dnn/input_from_feature_columns/input_layer/dayofweek_X_hourofday_embedding/ExpandDims"
  input: "dnn/input_from_feature_columns/input_layer/dayofweek_X_hourofday_embedding/to_sparse_input/ignore_value/x"
  attr {
    key: "T"
    value {
      type: DT_INT32
    }
  }
  attr {
    key: "_output_shapes"
    value {
      list {
        shape {
          dim {
            size: -1
          }
          dim {
            size: 1
          }
        }
      }
    }
  }
  attr {
    key: "incompatible_shape_error"
    value {
      b: true
    }
  }
}
node {
  name: "dnn/input_from_feature_columns/input_layer/dayofweek_X_hourofday_embedding/to_sparse_input/indices"
  op: "Where"
  input: "dnn/input_from_feature_columns/input_layer/dayofweek_X_hourofday_embedding/to_sparse_input/NotEqual"
  attr {
    key: "T"
    value {
      type: DT_BOOL
    }
  }
  attr {
    key: "_output_shapes"
    value {
      list {
        shape {
          dim {
            size: -1
          }
          dim {
            size: 2
          }
        }
      }
    }
  }
}
node {
  name: "dnn/input_from_feature_columns/input_layer/dayofweek_X_hourofday_embedding/to_sparse_input/values"
  op: "GatherNd"
  input: "dnn/input_from_feature_columns/input_layer/dayofweek_X_hourofday_embedding/ExpandDims"
  input: "dnn/input_from_feature_columns/input_layer/dayofweek_X_hourofday_embedding/to_sparse_input/indices"
  attr {
    key: "Tindices"
    value {
      type: DT_INT64
    }
  }
  attr {
    key: "Tparams"
    value {
      type: DT_INT32
    }
  }
  attr {
    key: "_output_shapes"
    value {
      list {
        shape {
          dim {
            size: -1
          }
        }
      }
    }
  }
}
node {
  name: "dnn/input_from_feature_columns/input_layer/dayofweek_X_hourofday_embedding/to_sparse_input/dense_shape"
  op: "Shape"
  input: "dnn/input_from_feature_columns/input_layer/dayofweek_X_hourofday_embedding/ExpandDims"
  attr {
    key: "T"
    value {
      type: DT_INT32
    }
  }
  attr {
    key: "_output_shapes"
    value {
      list {
        shape {
          dim {
            size: 2
          }
        }
      }
    }
  }
  attr {
    key: "out_type"
    value {
      type: DT_INT64
    }
  }
}
node {
  name: "dnn/input_from_feature_columns/input_layer/dayofweek_X_hourofday_embedding/values"
  op: "Cast"
  input: "dnn/input_from_feature_columns/input_layer/dayofweek_X_hourofday_embedding/to_sparse_input/values"
  attr {
    key: "DstT"
    value {
      type: DT_INT64
    }
  }
  attr {
    key: "SrcT"
    value {
      type: DT_INT32
    }
  }
  attr {
    key: "Truncate"
    value {
      b: false
    }
  }
  attr {
    key: "_output_shapes"
    value {
      list {
        shape {
          dim {
            size: -1
          }
        }
      }
    }
  }
}
node {
  name: "dnn/input_from_feature_columns/input_layer/dayofweek_X_hourofday_embedding/num_buckets/x"
  op: "Const"
  attr {
    key: "_output_shapes"
    value {
      list {
        shape {
        }
      }
    }
  }
  attr {
    key: "dtype"
    value {
      type: DT_INT32
    }
  }
  attr {
    key: "value"
    value {
      tensor {
        dtype: DT_INT32
        tensor_shape {
        }
        int_val: 7
      }
    }
  }
}
node {
  name: "dnn/input_from_feature_columns/input_layer/dayofweek_X_hourofday_embedding/num_buckets"
  op: "Cast"
  input: "dnn/input_from_feature_columns/input_layer/dayofweek_X_hourofday_embedding/num_buckets/x"
  attr {
    key: "DstT"
    value {
      type: DT_INT64
    }
  }
  attr {
    key: "SrcT"
    value {
      type: DT_INT32
    }
  }
  attr {
    key: "Truncate"
    value {
      b: false
    }
  }
  attr {
    key: "_output_shapes"
    value {
      list {
        shape {
        }
      }
    }
  }
}
node {
  name: "dnn/input_from_feature_columns/input_layer/dayofweek_X_hourofday_embedding/zero/x"
  op: "Const"
  attr {
    key: "_output_shapes"
    value {
      list {
        shape {
        }
      }
    }
  }
  attr {
    key: "dtype"
    value {
      type: DT_INT32
    }
  }
  attr {
    key: "value"
    value {
      tensor {
        dtype: DT_INT32
        tensor_shape {
        }
        int_val: 0
      }
    }
  }
}
node {
  name: "dnn/input_from_feature_columns/input_layer/dayofweek_X_hourofday_embedding/zero"
  op: "Cast"
  input: "dnn/input_from_feature_columns/input_layer/dayofweek_X_hourofday_embedding/zero/x"
  attr {
    key: "DstT"
    value {
      type: DT_INT64
    }
  }
  attr {
    key: "SrcT"
    value {
      type: DT_INT32
    }
  }
  attr {
    key: "Truncate"
    value {
      b: false
    }
  }
  attr {
    key: "_output_shapes"
    value {
      list {
        shape {
        }
      }
    }
  }
}
node {
  name: "dnn/input_from_feature_columns/input_layer/dayofweek_X_hourofday_embedding/assert_less_than_num_buckets/Less"
  op: "Less"
  input: "dnn/input_from_feature_columns/input_layer/dayofweek_X_hourofday_embedding/values"
  input: "dnn/input_from_feature_columns/input_layer/dayofweek_X_hourofday_embedding/num_buckets"
  attr {
    key: "T"
    value {
      type: DT_INT64
    }
  }
  attr {
    key: "_output_shapes"
    value {
      list {
        shape {
          dim {
            size: -1
          }
        }
      }
    }
  }
}
node {
  name: "dnn/input_from_feature_columns/input_layer/dayofweek_X_hourofday_embedding/assert_less_than_num_buckets/Const"
  op: "Const"
  attr {
    key: "_output_shapes"
    value {
      list {
        shape {
          dim {
            size: 1
          }
        }
      }
    }
  }
  attr {
    key: "dtype"
    value {
      type: DT_INT32
    }
  }
  attr {
    key: "value"
    value {
      tensor {
        dtype: DT_INT32
        tensor_shape {
          dim {
            size: 1
          }
        }
        int_val: 0
      }
    }
  }
}
node {
  name: "dnn/input_from_feature_columns/input_layer/dayofweek_X_hourofday_embedding/assert_less_than_num_buckets/All"
  op: "All"
  input: "dnn/input_from_feature_columns/input_layer/dayofweek_X_hourofday_embedding/assert_less_than_num_buckets/Less"
  input: "dnn/input_from_feature_columns/input_layer/dayofweek_X_hourofday_embedding/assert_less_than_num_buckets/Const"
  attr {
    key: "Tidx"
    value {
      type: DT_INT32
    }
  }
  attr {
    key: "_output_shapes"
    value {
      list {
        shape {
        }
      }
    }
  }
  attr {
    key: "keep_dims"
    value {
      b: false
    }
  }
}
node {
  name: "dnn/input_from_feature_columns/input_layer/dayofweek_X_hourofday_embedding/assert_less_than_num_buckets/Assert/Const"
  op: "Const"
  attr {
    key: "_output_shapes"
    value {
      list {
        shape {
        }
      }
    }
  }
  attr {
    key: "dtype"
    value {
      type: DT_STRING
    }
  }
  attr {
    key: "value"
    value {
      tensor {
        dtype: DT_STRING
        tensor_shape {
        }
        string_val: "Bucket index for categorical column \"dayofweek\" exceeds number of buckets"
      }
    }
  }
}
node {
  name: "dnn/input_from_feature_columns/input_layer/dayofweek_X_hourofday_embedding/assert_less_than_num_buckets/Assert/AssertGuard/Switch"
  op: "Switch"
  input: "dnn/input_from_feature_columns/input_layer/dayofweek_X_hourofday_embedding/assert_less_than_num_buckets/All"
  input: "dnn/input_from_feature_columns/input_layer/dayofweek_X_hourofday_embedding/assert_less_than_num_buckets/All"
  attr {
    key: "T"
    value {
      type: DT_BOOL
    }
  }
  attr {
    key: "_output_shapes"
    value {
      list {
        shape {
        }
        shape {
        }
      }
    }
  }
}
node {
  name: "dnn/input_from_feature_columns/input_layer/dayofweek_X_hourofday_embedding/assert_less_than_num_buckets/Assert/AssertGuard/switch_t"
  op: "Identity"
  input: "dnn/input_from_feature_columns/input_layer/dayofweek_X_hourofday_embedding/assert_less_than_num_buckets/Assert/AssertGuard/Switch:1"
  attr {
    key: "T"
    value {
      type: DT_BOOL
    }
  }
  attr {
    key: "_output_shapes"
    value {
      list {
        shape {
        }
      }
    }
  }
}
node {
  name: "dnn/input_from_feature_columns/input_layer/dayofweek_X_hourofday_embedding/assert_less_than_num_buckets/Assert/AssertGuard/switch_f"
  op: "Identity"
  input: "dnn/input_from_feature_columns/input_layer/dayofweek_X_hourofday_embedding/assert_less_than_num_buckets/Assert/AssertGuard/Switch"
  attr {
    key: "T"
    value {
      type: DT_BOOL
    }
  }
  attr {
    key: "_output_shapes"
    value {
      list {
        shape {
        }
      }
    }
  }
}
node {
  name: "dnn/input_from_feature_columns/input_layer/dayofweek_X_hourofday_embedding/assert_less_than_num_buckets/Assert/AssertGuard/pred_id"
  op: "Identity"
  input: "dnn/input_from_feature_columns/input_layer/dayofweek_X_hourofday_embedding/assert_less_than_num_buckets/All"
  attr {
    key: "T"
    value {
      type: DT_BOOL
    }
  }
  attr {
    key: "_output_shapes"
    value {
      list {
        shape {
        }
      }
    }
  }
}
node {
  name: "dnn/input_from_feature_columns/input_layer/dayofweek_X_hourofday_embedding/assert_less_than_num_buckets/Assert/AssertGuard/NoOp"
  op: "NoOp"
  input: "^dnn/input_from_feature_columns/input_layer/dayofweek_X_hourofday_embedding/assert_less_than_num_buckets/Assert/AssertGuard/switch_t"
}
node {
  name: "dnn/input_from_feature_columns/input_layer/dayofweek_X_hourofday_embedding/assert_less_than_num_buckets/Assert/AssertGuard/control_dependency"
  op: "Identity"
  input: "dnn/input_from_feature_columns/input_layer/dayofweek_X_hourofday_embedding/assert_less_than_num_buckets/Assert/AssertGuard/switch_t"
  input: "^dnn/input_from_feature_columns/input_layer/dayofweek_X_hourofday_embedding/assert_less_than_num_buckets/Assert/AssertGuard/NoOp"
  attr {
    key: "T"
    value {
      type: DT_BOOL
    }
  }
  attr {
    key: "_class"
    value {
      list {
        s: "loc:@dnn/input_from_feature_columns/input_layer/dayofweek_X_hourofday_embedding/assert_less_than_num_buckets/Assert/AssertGuard/switch_t"
      }
    }
  }
  attr {
    key: "_output_shapes"
    value {
      list {
        shape {
        }
      }
    }
  }
}
node {
  name: "dnn/input_from_feature_columns/input_layer/dayofweek_X_hourofday_embedding/assert_less_than_num_buckets/Assert/AssertGuard/Assert/data_0"
  op: "Const"
  input: "^dnn/input_from_feature_columns/input_layer/dayofweek_X_hourofday_embedding/assert_less_than_num_buckets/Assert/AssertGuard/switch_f"
  attr {
    key: "_output_shapes"
    value {
      list {
        shape {
        }
      }
    }
  }
  attr {
    key: "dtype"
    value {
      type: DT_STRING
    }
  }
  attr {
    key: "value"
    value {
      tensor {
        dtype: DT_STRING
        tensor_shape {
        }
        string_val: "Bucket index for categorical column \"dayofweek\" exceeds number of buckets"
      }
    }
  }
}
node {
  name: "dnn/input_from_feature_columns/input_layer/dayofweek_X_hourofday_embedding/assert_less_than_num_buckets/Assert/AssertGuard/Assert"
  op: "Assert"
  input: "dnn/input_from_feature_columns/input_layer/dayofweek_X_hourofday_embedding/assert_less_than_num_buckets/Assert/AssertGuard/Assert/Switch"
  input: "dnn/input_from_feature_columns/input_layer/dayofweek_X_hourofday_embedding/assert_less_than_num_buckets/Assert/AssertGuard/Assert/data_0"
  input: "dnn/input_from_feature_columns/input_layer/dayofweek_X_hourofday_embedding/assert_less_than_num_buckets/Assert/AssertGuard/Assert/Switch_1"
  input: "dnn/input_from_feature_columns/input_layer/dayofweek_X_hourofday_embedding/assert_less_than_num_buckets/Assert/AssertGuard/Assert/Switch_2"
  attr {
    key: "T"
    value {
      list {
        type: DT_STRING
        type: DT_INT64
        type: DT_INT64
      }
    }
  }
  attr {
    key: "summarize"
    value {
      i: 3
    }
  }
}
node {
  name: "dnn/input_from_feature_columns/input_layer/dayofweek_X_hourofday_embedding/assert_less_than_num_buckets/Assert/AssertGuard/Assert/Switch"
  op: "Switch"
  input: "dnn/input_from_feature_columns/input_layer/dayofweek_X_hourofday_embedding/assert_less_than_num_buckets/All"
  input: "dnn/input_from_feature_columns/input_layer/dayofweek_X_hourofday_embedding/assert_less_than_num_buckets/Assert/AssertGuard/pred_id"
  attr {
    key: "T"
    value {
      type: DT_BOOL
    }
  }
  attr {
    key: "_class"
    value {
      list {
        s: "loc:@dnn/input_from_feature_columns/input_layer/dayofweek_X_hourofday_embedding/assert_less_than_num_buckets/All"
      }
    }
  }
  attr {
    key: "_output_shapes"
    value {
      list {
        shape {
        }
        shape {
        }
      }
    }
  }
}
node {
  name: "dnn/input_from_feature_columns/input_layer/dayofweek_X_hourofday_embedding/assert_less_than_num_buckets/Assert/AssertGuard/Assert/Switch_1"
  op: "Switch"
  input: "dnn/input_from_feature_columns/input_layer/dayofweek_X_hourofday_embedding/values"
  input: "dnn/input_from_feature_columns/input_layer/dayofweek_X_hourofday_embedding/assert_less_than_num_buckets/Assert/AssertGuard/pred_id"
  attr {
    key: "T"
    value {
      type: DT_INT64
    }
  }
  attr {
    key: "_class"
    value {
      list {
        s: "loc:@dnn/input_from_feature_columns/input_layer/dayofweek_X_hourofday_embedding/values"
      }
    }
  }
  attr {
    key: "_output_shapes"
    value {
      list {
        shape {
          dim {
            size: -1
          }
        }
        shape {
          dim {
            size: -1
          }
        }
      }
    }
  }
}
node {
  name: "dnn/input_from_feature_columns/input_layer/dayofweek_X_hourofday_embedding/assert_less_than_num_buckets/Assert/AssertGuard/Assert/Switch_2"
  op: "Switch"
  input: "dnn/input_from_feature_columns/input_layer/dayofweek_X_hourofday_embedding/num_buckets"
  input: "dnn/input_from_feature_columns/input_layer/dayofweek_X_hourofday_embedding/assert_less_than_num_buckets/Assert/AssertGuard/pred_id"
  attr {
    key: "T"
    value {
      type: DT_INT64
    }
  }
  attr {
    key: "_class"
    value {
      list {
        s: "loc:@dnn/input_from_feature_columns/input_layer/dayofweek_X_hourofday_embedding/num_buckets"
      }
    }
  }
  attr {
    key: "_output_shapes"
    value {
      list {
        shape {
        }
        shape {
        }
      }
    }
  }
}
node {
  name: "dnn/input_from_feature_columns/input_layer/dayofweek_X_hourofday_embedding/assert_less_than_num_buckets/Assert/AssertGuard/control_dependency_1"
  op: "Identity"
  input: "dnn/input_from_feature_columns/input_layer/dayofweek_X_hourofday_embedding/assert_less_than_num_buckets/Assert/AssertGuard/switch_f"
  input: "^dnn/input_from_feature_columns/input_layer/dayofweek_X_hourofday_embedding/assert_less_than_num_buckets/Assert/AssertGuard/Assert"
  attr {
    key: "T"
    value {
      type: DT_BOOL
    }
  }
  attr {
    key: "_class"
    value {
      list {
        s: "loc:@dnn/input_from_feature_columns/input_layer/dayofweek_X_hourofday_embedding/assert_less_than_num_buckets/Assert/AssertGuard/switch_f"
      }
    }
  }
  attr {
    key: "_output_shapes"
    value {
      list {
        shape {
        }
      }
    }
  }
}
node {
  name: "dnn/input_from_feature_columns/input_layer/dayofweek_X_hourofday_embedding/assert_less_than_num_buckets/Assert/AssertGuard/Merge"
  op: "Merge"
  input: "dnn/input_from_feature_columns/input_layer/dayofweek_X_hourofday_embedding/assert_less_than_num_buckets/Assert/AssertGuard/control_dependency_1"
  input: "dnn/input_from_feature_columns/input_layer/dayofweek_X_hourofday_embedding/assert_less_than_num_buckets/Assert/AssertGuard/control_dependency"
  attr {
    key: "N"
    value {
      i: 2
    }
  }
  attr {
    key: "T"
    value {
      type: DT_BOOL
    }
  }
  attr {
    key: "_output_shapes"
    value {
      list {
        shape {
        }
        shape {
        }
      }
    }
  }
}
node {
  name: "dnn/input_from_feature_columns/input_layer/dayofweek_X_hourofday_embedding/assert_greater_or_equal_0/GreaterEqual"
  op: "GreaterEqual"
  input: "dnn/input_from_feature_columns/input_layer/dayofweek_X_hourofday_embedding/values"
  input: "dnn/input_from_feature_columns/input_layer/dayofweek_X_hourofday_embedding/zero"
  attr {
    key: "T"
    value {
      type: DT_INT64
    }
  }
  attr {
    key: "_output_shapes"
    value {
      list {
        shape {
          dim {
            size: -1
          }
        }
      }
    }
  }
}
node {
  name: "dnn/input_from_feature_columns/input_layer/dayofweek_X_hourofday_embedding/assert_greater_or_equal_0/Const"
  op: "Const"
  attr {
    key: "_output_shapes"
    value {
      list {
        shape {
          dim {
            size: 1
          }
        }
      }
    }
  }
  attr {
    key: "dtype"
    value {
      type: DT_INT32
    }
  }
  attr {
    key: "value"
    value {
      tensor {
        dtype: DT_INT32
        tensor_shape {
          dim {
            size: 1
          }
        }
        int_val: 0
      }
    }
  }
}
node {
  name: "dnn/input_from_feature_columns/input_layer/dayofweek_X_hourofday_embedding/assert_greater_or_equal_0/All"
  op: "All"
  input: "dnn/input_from_feature_columns/input_layer/dayofweek_X_hourofday_embedding/assert_greater_or_equal_0/GreaterEqual"
  input: "dnn/input_from_feature_columns/input_layer/dayofweek_X_hourofday_embedding/assert_greater_or_equal_0/Const"
  attr {
    key: "Tidx"
    value {
      type: DT_INT32
    }
  }
  attr {
    key: "_output_shapes"
    value {
      list {
        shape {
        }
      }
    }
  }
  attr {
    key: "keep_dims"
    value {
      b: false
    }
  }
}
node {
  name: "dnn/input_from_feature_columns/input_layer/dayofweek_X_hourofday_embedding/assert_greater_or_equal_0/Assert/Const"
  op: "Const"
  attr {
    key: "_output_shapes"
    value {
      list {
        shape {
        }
      }
    }
  }
  attr {
    key: "dtype"
    value {
      type: DT_STRING
    }
  }
  attr {
    key: "value"
    value {
      tensor {
        dtype: DT_STRING
        tensor_shape {
        }
        string_val: "Negative bucket index for categorical column \"dayofweek\""
      }
    }
  }
}
node {
  name: "dnn/input_from_feature_columns/input_layer/dayofweek_X_hourofday_embedding/assert_greater_or_equal_0/Assert/AssertGuard/Switch"
  op: "Switch"
  input: "dnn/input_from_feature_columns/input_layer/dayofweek_X_hourofday_embedding/assert_greater_or_equal_0/All"
  input: "dnn/input_from_feature_columns/input_layer/dayofweek_X_hourofday_embedding/assert_greater_or_equal_0/All"
  attr {
    key: "T"
    value {
      type: DT_BOOL
    }
  }
  attr {
    key: "_output_shapes"
    value {
      list {
        shape {
        }
        shape {
        }
      }
    }
  }
}
node {
  name: "dnn/input_from_feature_columns/input_layer/dayofweek_X_hourofday_embedding/assert_greater_or_equal_0/Assert/AssertGuard/switch_t"
  op: "Identity"
  input: "dnn/input_from_feature_columns/input_layer/dayofweek_X_hourofday_embedding/assert_greater_or_equal_0/Assert/AssertGuard/Switch:1"
  attr {
    key: "T"
    value {
      type: DT_BOOL
    }
  }
  attr {
    key: "_output_shapes"
    value {
      list {
        shape {
        }
      }
    }
  }
}
node {
  name: "dnn/input_from_feature_columns/input_layer/dayofweek_X_hourofday_embedding/assert_greater_or_equal_0/Assert/AssertGuard/switch_f"
  op: "Identity"
  input: "dnn/input_from_feature_columns/input_layer/dayofweek_X_hourofday_embedding/assert_greater_or_equal_0/Assert/AssertGuard/Switch"
  attr {
    key: "T"
    value {
      type: DT_BOOL
    }
  }
  attr {
    key: "_output_shapes"
    value {
      list {
        shape {
        }
      }
    }
  }
}
node {
  name: "dnn/input_from_feature_columns/input_layer/dayofweek_X_hourofday_embedding/assert_greater_or_equal_0/Assert/AssertGuard/pred_id"
  op: "Identity"
  input: "dnn/input_from_feature_columns/input_layer/dayofweek_X_hourofday_embedding/assert_greater_or_equal_0/All"
  attr {
    key: "T"
    value {
      type: DT_BOOL
    }
  }
  attr {
    key: "_output_shapes"
    value {
      list {
        shape {
        }
      }
    }
  }
}
node {
  name: "dnn/input_from_feature_columns/input_layer/dayofweek_X_hourofday_embedding/assert_greater_or_equal_0/Assert/AssertGuard/NoOp"
  op: "NoOp"
  input: "^dnn/input_from_feature_columns/input_layer/dayofweek_X_hourofday_embedding/assert_greater_or_equal_0/Assert/AssertGuard/switch_t"
}
node {
  name: "dnn/input_from_feature_columns/input_layer/dayofweek_X_hourofday_embedding/assert_greater_or_equal_0/Assert/AssertGuard/control_dependency"
  op: "Identity"
  input: "dnn/input_from_feature_columns/input_layer/dayofweek_X_hourofday_embedding/assert_greater_or_equal_0/Assert/AssertGuard/switch_t"
  input: "^dnn/input_from_feature_columns/input_layer/dayofweek_X_hourofday_embedding/assert_greater_or_equal_0/Assert/AssertGuard/NoOp"
  attr {
    key: "T"
    value {
      type: DT_BOOL
    }
  }
  attr {
    key: "_class"
    value {
      list {
        s: "loc:@dnn/input_from_feature_columns/input_layer/dayofweek_X_hourofday_embedding/assert_greater_or_equal_0/Assert/AssertGuard/switch_t"
      }
    }
  }
  attr {
    key: "_output_shapes"
    value {
      list {
        shape {
        }
      }
    }
  }
}
node {
  name: "dnn/input_from_feature_columns/input_layer/dayofweek_X_hourofday_embedding/assert_greater_or_equal_0/Assert/AssertGuard/Assert/data_0"
  op: "Const"
  input: "^dnn/input_from_feature_columns/input_layer/dayofweek_X_hourofday_embedding/assert_greater_or_equal_0/Assert/AssertGuard/switch_f"
  attr {
    key: "_output_shapes"
    value {
      list {
        shape {
        }
      }
    }
  }
  attr {
    key: "dtype"
    value {
      type: DT_STRING
    }
  }
  attr {
    key: "value"
    value {
      tensor {
        dtype: DT_STRING
        tensor_shape {
        }
        string_val: "Negative bucket index for categorical column \"dayofweek\""
      }
    }
  }
}
node {
  name: "dnn/input_from_feature_columns/input_layer/dayofweek_X_hourofday_embedding/assert_greater_or_equal_0/Assert/AssertGuard/Assert"
  op: "Assert"
  input: "dnn/input_from_feature_columns/input_layer/dayofweek_X_hourofday_embedding/assert_greater_or_equal_0/Assert/AssertGuard/Assert/Switch"
  input: "dnn/input_from_feature_columns/input_layer/dayofweek_X_hourofday_embedding/assert_greater_or_equal_0/Assert/AssertGuard/Assert/data_0"
  input: "dnn/input_from_feature_columns/input_layer/dayofweek_X_hourofday_embedding/assert_greater_or_equal_0/Assert/AssertGuard/Assert/Switch_1"
  attr {
    key: "T"
    value {
      list {
        type: DT_STRING
        type: DT_INT64
      }
    }
  }
  attr {
    key: "summarize"
    value {
      i: 3
    }
  }
}
node {
  name: "dnn/input_from_feature_columns/input_layer/dayofweek_X_hourofday_embedding/assert_greater_or_equal_0/Assert/AssertGuard/Assert/Switch"
  op: "Switch"
  input: "dnn/input_from_feature_columns/input_layer/dayofweek_X_hourofday_embedding/assert_greater_or_equal_0/All"
  input: "dnn/input_from_feature_columns/input_layer/dayofweek_X_hourofday_embedding/assert_greater_or_equal_0/Assert/AssertGuard/pred_id"
  attr {
    key: "T"
    value {
      type: DT_BOOL
    }
  }
  attr {
    key: "_class"
    value {
      list {
        s: "loc:@dnn/input_from_feature_columns/input_layer/dayofweek_X_hourofday_embedding/assert_greater_or_equal_0/All"
      }
    }
  }
  attr {
    key: "_output_shapes"
    value {
      list {
        shape {
        }
        shape {
        }
      }
    }
  }
}
node {
  name: "dnn/input_from_feature_columns/input_layer/dayofweek_X_hourofday_embedding/assert_greater_or_equal_0/Assert/AssertGuard/Assert/Switch_1"
  op: "Switch"
  input: "dnn/input_from_feature_columns/input_layer/dayofweek_X_hourofday_embedding/values"
  input: "dnn/input_from_feature_columns/input_layer/dayofweek_X_hourofday_embedding/assert_greater_or_equal_0/Assert/AssertGuard/pred_id"
  attr {
    key: "T"
    value {
      type: DT_INT64
    }
  }
  attr {
    key: "_class"
    value {
      list {
        s: "loc:@dnn/input_from_feature_columns/input_layer/dayofweek_X_hourofday_embedding/values"
      }
    }
  }
  attr {
    key: "_output_shapes"
    value {
      list {
        shape {
          dim {
            size: -1
          }
        }
        shape {
          dim {
            size: -1
          }
        }
      }
    }
  }
}
node {
  name: "dnn/input_from_feature_columns/input_layer/dayofweek_X_hourofday_embedding/assert_greater_or_equal_0/Assert/AssertGuard/control_dependency_1"
  op: "Identity"
  input: "dnn/input_from_feature_columns/input_layer/dayofweek_X_hourofday_embedding/assert_greater_or_equal_0/Assert/AssertGuard/switch_f"
  input: "^dnn/input_from_feature_columns/input_layer/dayofweek_X_hourofday_embedding/assert_greater_or_equal_0/Assert/AssertGuard/Assert"
  attr {
    key: "T"
    value {
      type: DT_BOOL
    }
  }
  attr {
    key: "_class"
    value {
      list {
        s: "loc:@dnn/input_from_feature_columns/input_layer/dayofweek_X_hourofday_embedding/assert_greater_or_equal_0/Assert/AssertGuard/switch_f"
      }
    }
  }
  attr {
    key: "_output_shapes"
    value {
      list {
        shape {
        }
      }
    }
  }
}
node {
  name: "dnn/input_from_feature_columns/input_layer/dayofweek_X_hourofday_embedding/assert_greater_or_equal_0/Assert/AssertGuard/Merge"
  op: "Merge"
  input: "dnn/input_from_feature_columns/input_layer/dayofweek_X_hourofday_embedding/assert_greater_or_equal_0/Assert/AssertGuard/control_dependency_1"
  input: "dnn/input_from_feature_columns/input_layer/dayofweek_X_hourofday_embedding/assert_greater_or_equal_0/Assert/AssertGuard/control_dependency"
  attr {
    key: "N"
    value {
      i: 2
    }
  }
  attr {
    key: "T"
    value {
      type: DT_BOOL
    }
  }
  attr {
    key: "_output_shapes"
    value {
      list {
        shape {
        }
        shape {
        }
      }
    }
  }
}
node {
  name: "dnn/input_from_feature_columns/input_layer/dayofweek_X_hourofday_embedding/Identity"
  op: "Identity"
  input: "dnn/input_from_feature_columns/input_layer/dayofweek_X_hourofday_embedding/values"
  input: "^dnn/input_from_feature_columns/input_layer/dayofweek_X_hourofday_embedding/assert_greater_or_equal_0/Assert/AssertGuard/Merge"
  input: "^dnn/input_from_feature_columns/input_layer/dayofweek_X_hourofday_embedding/assert_less_than_num_buckets/Assert/AssertGuard/Merge"
  attr {
    key: "T"
    value {
      type: DT_INT64
    }
  }
  attr {
    key: "_output_shapes"
    value {
      list {
        shape {
          dim {
            size: -1
          }
        }
      }
    }
  }
}
node {
  name: "dnn/input_from_feature_columns/input_layer/dayofweek_X_hourofday_embedding/ExpandDims_1/dim"
  op: "Const"
  attr {
    key: "_output_shapes"
    value {
      list {
        shape {
        }
      }
    }
  }
  attr {
    key: "dtype"
    value {
      type: DT_INT32
    }
  }
  attr {
    key: "value"
    value {
      tensor {
        dtype: DT_INT32
        tensor_shape {
        }
        int_val: -1
      }
    }
  }
}
node {
  name: "dnn/input_from_feature_columns/input_layer/dayofweek_X_hourofday_embedding/ExpandDims_1"
  op: "ExpandDims"
  input: "IteratorGetNext:4"
  input: "dnn/input_from_feature_columns/input_layer/dayofweek_X_hourofday_embedding/ExpandDims_1/dim"
  attr {
    key: "T"
    value {
      type: DT_INT32
    }
  }
  attr {
    key: "Tdim"
    value {
      type: DT_INT32
    }
  }
  attr {
    key: "_output_shapes"
    value {
      list {
        shape {
          dim {
            size: -1
          }
          dim {
            size: 1
          }
        }
      }
    }
  }
}
node {
  name: "dnn/input_from_feature_columns/input_layer/dayofweek_X_hourofday_embedding/to_sparse_input_1/ignore_value/x"
  op: "Const"
  attr {
    key: "_output_shapes"
    value {
      list {
        shape {
        }
      }
    }
  }
  attr {
    key: "dtype"
    value {
      type: DT_INT32
    }
  }
  attr {
    key: "value"
    value {
      tensor {
        dtype: DT_INT32
        tensor_shape {
        }
        int_val: -1
      }
    }
  }
}
node {
  name: "dnn/input_from_feature_columns/input_layer/dayofweek_X_hourofday_embedding/to_sparse_input_1/NotEqual"
  op: "NotEqual"
  input: "dnn/input_from_feature_columns/input_layer/dayofweek_X_hourofday_embedding/ExpandDims_1"
  input: "dnn/input_from_feature_columns/input_layer/dayofweek_X_hourofday_embedding/to_sparse_input_1/ignore_value/x"
  attr {
    key: "T"
    value {
      type: DT_INT32
    }
  }
  attr {
    key: "_output_shapes"
    value {
      list {
        shape {
          dim {
            size: -1
          }
          dim {
            size: 1
          }
        }
      }
    }
  }
  attr {
    key: "incompatible_shape_error"
    value {
      b: true
    }
  }
}
node {
  name: "dnn/input_from_feature_columns/input_layer/dayofweek_X_hourofday_embedding/to_sparse_input_1/indices"
  op: "Where"
  input: "dnn/input_from_feature_columns/input_layer/dayofweek_X_hourofday_embedding/to_sparse_input_1/NotEqual"
  attr {
    key: "T"
    value {
      type: DT_BOOL
    }
  }
  attr {
    key: "_output_shapes"
    value {
      list {
        shape {
          dim {
            size: -1
          }
          dim {
            size: 2
          }
        }
      }
    }
  }
}
node {
  name: "dnn/input_from_feature_columns/input_layer/dayofweek_X_hourofday_embedding/to_sparse_input_1/values"
  op: "GatherNd"
  input: "dnn/input_from_feature_columns/input_layer/dayofweek_X_hourofday_embedding/ExpandDims_1"
  input: "dnn/input_from_feature_columns/input_layer/dayofweek_X_hourofday_embedding/to_sparse_input_1/indices"
  attr {
    key: "Tindices"
    value {
      type: DT_INT64
    }
  }
  attr {
    key: "Tparams"
    value {
      type: DT_INT32
    }
  }
  attr {
    key: "_output_shapes"
    value {
      list {
        shape {
          dim {
            size: -1
          }
        }
      }
    }
  }
}
node {
  name: "dnn/input_from_feature_columns/input_layer/dayofweek_X_hourofday_embedding/to_sparse_input_1/dense_shape"
  op: "Shape"
  input: "dnn/input_from_feature_columns/input_layer/dayofweek_X_hourofday_embedding/ExpandDims_1"
  attr {
    key: "T"
    value {
      type: DT_INT32
    }
  }
  attr {
    key: "_output_shapes"
    value {
      list {
        shape {
          dim {
            size: 2
          }
        }
      }
    }
  }
  attr {
    key: "out_type"
    value {
      type: DT_INT64
    }
  }
}
node {
  name: "dnn/input_from_feature_columns/input_layer/dayofweek_X_hourofday_embedding/values_1"
  op: "Cast"
  input: "dnn/input_from_feature_columns/input_layer/dayofweek_X_hourofday_embedding/to_sparse_input_1/values"
  attr {
    key: "DstT"
    value {
      type: DT_INT64
    }
  }
  attr {
    key: "SrcT"
    value {
      type: DT_INT32
    }
  }
  attr {
    key: "Truncate"
    value {
      b: false
    }
  }
  attr {
    key: "_output_shapes"
    value {
      list {
        shape {
          dim {
            size: -1
          }
        }
      }
    }
  }
}
node {
  name: "dnn/input_from_feature_columns/input_layer/dayofweek_X_hourofday_embedding/num_buckets_1/x"
  op: "Const"
  attr {
    key: "_output_shapes"
    value {
      list {
        shape {
        }
      }
    }
  }
  attr {
    key: "dtype"
    value {
      type: DT_INT32
    }
  }
  attr {
    key: "value"
    value {
      tensor {
        dtype: DT_INT32
        tensor_shape {
        }
        int_val: 24
      }
    }
  }
}
node {
  name: "dnn/input_from_feature_columns/input_layer/dayofweek_X_hourofday_embedding/num_buckets_1"
  op: "Cast"
  input: "dnn/input_from_feature_columns/input_layer/dayofweek_X_hourofday_embedding/num_buckets_1/x"
  attr {
    key: "DstT"
    value {
      type: DT_INT64
    }
  }
  attr {
    key: "SrcT"
    value {
      type: DT_INT32
    }
  }
  attr {
    key: "Truncate"
    value {
      b: false
    }
  }
  attr {
    key: "_output_shapes"
    value {
      list {
        shape {
        }
      }
    }
  }
}
node {
  name: "dnn/input_from_feature_columns/input_layer/dayofweek_X_hourofday_embedding/zero_1/x"
  op: "Const"
  attr {
    key: "_output_shapes"
    value {
      list {
        shape {
        }
      }
    }
  }
  attr {
    key: "dtype"
    value {
      type: DT_INT32
    }
  }
  attr {
    key: "value"
    value {
      tensor {
        dtype: DT_INT32
        tensor_shape {
        }
        int_val: 0
      }
    }
  }
}
node {
  name: "dnn/input_from_feature_columns/input_layer/dayofweek_X_hourofday_embedding/zero_1"
  op: "Cast"
  input: "dnn/input_from_feature_columns/input_layer/dayofweek_X_hourofday_embedding/zero_1/x"
  attr {
    key: "DstT"
    value {
      type: DT_INT64
    }
  }
  attr {
    key: "SrcT"
    value {
      type: DT_INT32
    }
  }
  attr {
    key: "Truncate"
    value {
      b: false
    }
  }
  attr {
    key: "_output_shapes"
    value {
      list {
        shape {
        }
      }
    }
  }
}
node {
  name: "dnn/input_from_feature_columns/input_layer/dayofweek_X_hourofday_embedding/assert_less_than_num_buckets_1/Less"
  op: "Less"
  input: "dnn/input_from_feature_columns/input_layer/dayofweek_X_hourofday_embedding/values_1"
  input: "dnn/input_from_feature_columns/input_layer/dayofweek_X_hourofday_embedding/num_buckets_1"
  attr {
    key: "T"
    value {
      type: DT_INT64
    }
  }
  attr {
    key: "_output_shapes"
    value {
      list {
        shape {
          dim {
            size: -1
          }
        }
      }
    }
  }
}
node {
  name: "dnn/input_from_feature_columns/input_layer/dayofweek_X_hourofday_embedding/assert_less_than_num_buckets_1/Const"
  op: "Const"
  attr {
    key: "_output_shapes"
    value {
      list {
        shape {
          dim {
            size: 1
          }
        }
      }
    }
  }
  attr {
    key: "dtype"
    value {
      type: DT_INT32
    }
  }
  attr {
    key: "value"
    value {
      tensor {
        dtype: DT_INT32
        tensor_shape {
          dim {
            size: 1
          }
        }
        int_val: 0
      }
    }
  }
}
node {
  name: "dnn/input_from_feature_columns/input_layer/dayofweek_X_hourofday_embedding/assert_less_than_num_buckets_1/All"
  op: "All"
  input: "dnn/input_from_feature_columns/input_layer/dayofweek_X_hourofday_embedding/assert_less_than_num_buckets_1/Less"
  input: "dnn/input_from_feature_columns/input_layer/dayofweek_X_hourofday_embedding/assert_less_than_num_buckets_1/Const"
  attr {
    key: "Tidx"
    value {
      type: DT_INT32
    }
  }
  attr {
    key: "_output_shapes"
    value {
      list {
        shape {
        }
      }
    }
  }
  attr {
    key: "keep_dims"
    value {
      b: false
    }
  }
}
node {
  name: "dnn/input_from_feature_columns/input_layer/dayofweek_X_hourofday_embedding/assert_less_than_num_buckets_1/Assert/Const"
  op: "Const"
  attr {
    key: "_output_shapes"
    value {
      list {
        shape {
        }
      }
    }
  }
  attr {
    key: "dtype"
    value {
      type: DT_STRING
    }
  }
  attr {
    key: "value"
    value {
      tensor {
        dtype: DT_STRING
        tensor_shape {
        }
        string_val: "Bucket index for categorical column \"hourofday\" exceeds number of buckets"
      }
    }
  }
}
node {
  name: "dnn/input_from_feature_columns/input_layer/dayofweek_X_hourofday_embedding/assert_less_than_num_buckets_1/Assert/AssertGuard/Switch"
  op: "Switch"
  input: "dnn/input_from_feature_columns/input_layer/dayofweek_X_hourofday_embedding/assert_less_than_num_buckets_1/All"
  input: "dnn/input_from_feature_columns/input_layer/dayofweek_X_hourofday_embedding/assert_less_than_num_buckets_1/All"
  attr {
    key: "T"
    value {
      type: DT_BOOL
    }
  }
  attr {
    key: "_output_shapes"
    value {
      list {
        shape {
        }
        shape {
        }
      }
    }
  }
}
node {
  name: "dnn/input_from_feature_columns/input_layer/dayofweek_X_hourofday_embedding/assert_less_than_num_buckets_1/Assert/AssertGuard/switch_t"
  op: "Identity"
  input: "dnn/input_from_feature_columns/input_layer/dayofweek_X_hourofday_embedding/assert_less_than_num_buckets_1/Assert/AssertGuard/Switch:1"
  attr {
    key: "T"
    value {
      type: DT_BOOL
    }
  }
  attr {
    key: "_output_shapes"
    value {
      list {
        shape {
        }
      }
    }
  }
}
node {
  name: "dnn/input_from_feature_columns/input_layer/dayofweek_X_hourofday_embedding/assert_less_than_num_buckets_1/Assert/AssertGuard/switch_f"
  op: "Identity"
  input: "dnn/input_from_feature_columns/input_layer/dayofweek_X_hourofday_embedding/assert_less_than_num_buckets_1/Assert/AssertGuard/Switch"
  attr {
    key: "T"
    value {
      type: DT_BOOL
    }
  }
  attr {
    key: "_output_shapes"
    value {
      list {
        shape {
        }
      }
    }
  }
}
node {
  name: "dnn/input_from_feature_columns/input_layer/dayofweek_X_hourofday_embedding/assert_less_than_num_buckets_1/Assert/AssertGuard/pred_id"
  op: "Identity"
  input: "dnn/input_from_feature_columns/input_layer/dayofweek_X_hourofday_embedding/assert_less_than_num_buckets_1/All"
  attr {
    key: "T"
    value {
      type: DT_BOOL
    }
  }
  attr {
    key: "_output_shapes"
    value {
      list {
        shape {
        }
      }
    }
  }
}
node {
  name: "dnn/input_from_feature_columns/input_layer/dayofweek_X_hourofday_embedding/assert_less_than_num_buckets_1/Assert/AssertGuard/NoOp"
  op: "NoOp"
  input: "^dnn/input_from_feature_columns/input_layer/dayofweek_X_hourofday_embedding/assert_less_than_num_buckets_1/Assert/AssertGuard/switch_t"
}
node {
  name: "dnn/input_from_feature_columns/input_layer/dayofweek_X_hourofday_embedding/assert_less_than_num_buckets_1/Assert/AssertGuard/control_dependency"
  op: "Identity"
  input: "dnn/input_from_feature_columns/input_layer/dayofweek_X_hourofday_embedding/assert_less_than_num_buckets_1/Assert/AssertGuard/switch_t"
  input: "^dnn/input_from_feature_columns/input_layer/dayofweek_X_hourofday_embedding/assert_less_than_num_buckets_1/Assert/AssertGuard/NoOp"
  attr {
    key: "T"
    value {
      type: DT_BOOL
    }
  }
  attr {
    key: "_class"
    value {
      list {
        s: "loc:@dnn/input_from_feature_columns/input_layer/dayofweek_X_hourofday_embedding/assert_less_than_num_buckets_1/Assert/AssertGuard/switch_t"
      }
    }
  }
  attr {
    key: "_output_shapes"
    value {
      list {
        shape {
        }
      }
    }
  }
}
node {
  name: "dnn/input_from_feature_columns/input_layer/dayofweek_X_hourofday_embedding/assert_less_than_num_buckets_1/Assert/AssertGuard/Assert/data_0"
  op: "Const"
  input: "^dnn/input_from_feature_columns/input_layer/dayofweek_X_hourofday_embedding/assert_less_than_num_buckets_1/Assert/AssertGuard/switch_f"
  attr {
    key: "_output_shapes"
    value {
      list {
        shape {
        }
      }
    }
  }
  attr {
    key: "dtype"
    value {
      type: DT_STRING
    }
  }
  attr {
    key: "value"
    value {
      tensor {
        dtype: DT_STRING
        tensor_shape {
        }
        string_val: "Bucket index for categorical column \"hourofday\" exceeds number of buckets"
      }
    }
  }
}
node {
  name: "dnn/input_from_feature_columns/input_layer/dayofweek_X_hourofday_embedding/assert_less_than_num_buckets_1/Assert/AssertGuard/Assert"
  op: "Assert"
  input: "dnn/input_from_feature_columns/input_layer/dayofweek_X_hourofday_embedding/assert_less_than_num_buckets_1/Assert/AssertGuard/Assert/Switch"
  input: "dnn/input_from_feature_columns/input_layer/dayofweek_X_hourofday_embedding/assert_less_than_num_buckets_1/Assert/AssertGuard/Assert/data_0"
  input: "dnn/input_from_feature_columns/input_layer/dayofweek_X_hourofday_embedding/assert_less_than_num_buckets_1/Assert/AssertGuard/Assert/Switch_1"
  input: "dnn/input_from_feature_columns/input_layer/dayofweek_X_hourofday_embedding/assert_less_than_num_buckets_1/Assert/AssertGuard/Assert/Switch_2"
  attr {
    key: "T"
    value {
      list {
        type: DT_STRING
        type: DT_INT64
        type: DT_INT64
      }
    }
  }
  attr {
    key: "summarize"
    value {
      i: 3
    }
  }
}
node {
  name: "dnn/input_from_feature_columns/input_layer/dayofweek_X_hourofday_embedding/assert_less_than_num_buckets_1/Assert/AssertGuard/Assert/Switch"
  op: "Switch"
  input: "dnn/input_from_feature_columns/input_layer/dayofweek_X_hourofday_embedding/assert_less_than_num_buckets_1/All"
  input: "dnn/input_from_feature_columns/input_layer/dayofweek_X_hourofday_embedding/assert_less_than_num_buckets_1/Assert/AssertGuard/pred_id"
  attr {
    key: "T"
    value {
      type: DT_BOOL
    }
  }
  attr {
    key: "_class"
    value {
      list {
        s: "loc:@dnn/input_from_feature_columns/input_layer/dayofweek_X_hourofday_embedding/assert_less_than_num_buckets_1/All"
      }
    }
  }
  attr {
    key: "_output_shapes"
    value {
      list {
        shape {
        }
        shape {
        }
      }
    }
  }
}
node {
  name: "dnn/input_from_feature_columns/input_layer/dayofweek_X_hourofday_embedding/assert_less_than_num_buckets_1/Assert/AssertGuard/Assert/Switch_1"
  op: "Switch"
  input: "dnn/input_from_feature_columns/input_layer/dayofweek_X_hourofday_embedding/values_1"
  input: "dnn/input_from_feature_columns/input_layer/dayofweek_X_hourofday_embedding/assert_less_than_num_buckets_1/Assert/AssertGuard/pred_id"
  attr {
    key: "T"
    value {
      type: DT_INT64
    }
  }
  attr {
    key: "_class"
    value {
      list {
        s: "loc:@dnn/input_from_feature_columns/input_layer/dayofweek_X_hourofday_embedding/values_1"
      }
    }
  }
  attr {
    key: "_output_shapes"
    value {
      list {
        shape {
          dim {
            size: -1
          }
        }
        shape {
          dim {
            size: -1
          }
        }
      }
    }
  }
}
node {
  name: "dnn/input_from_feature_columns/input_layer/dayofweek_X_hourofday_embedding/assert_less_than_num_buckets_1/Assert/AssertGuard/Assert/Switch_2"
  op: "Switch"
  input: "dnn/input_from_feature_columns/input_layer/dayofweek_X_hourofday_embedding/num_buckets_1"
  input: "dnn/input_from_feature_columns/input_layer/dayofweek_X_hourofday_embedding/assert_less_than_num_buckets_1/Assert/AssertGuard/pred_id"
  attr {
    key: "T"
    value {
      type: DT_INT64
    }
  }
  attr {
    key: "_class"
    value {
      list {
        s: "loc:@dnn/input_from_feature_columns/input_layer/dayofweek_X_hourofday_embedding/num_buckets_1"
      }
    }
  }
  attr {
    key: "_output_shapes"
    value {
      list {
        shape {
        }
        shape {
        }
      }
    }
  }
}
node {
  name: "dnn/input_from_feature_columns/input_layer/dayofweek_X_hourofday_embedding/assert_less_than_num_buckets_1/Assert/AssertGuard/control_dependency_1"
  op: "Identity"
  input: "dnn/input_from_feature_columns/input_layer/dayofweek_X_hourofday_embedding/assert_less_than_num_buckets_1/Assert/AssertGuard/switch_f"
  input: "^dnn/input_from_feature_columns/input_layer/dayofweek_X_hourofday_embedding/assert_less_than_num_buckets_1/Assert/AssertGuard/Assert"
  attr {
    key: "T"
    value {
      type: DT_BOOL
    }
  }
  attr {
    key: "_class"
    value {
      list {
        s: "loc:@dnn/input_from_feature_columns/input_layer/dayofweek_X_hourofday_embedding/assert_less_than_num_buckets_1/Assert/AssertGuard/switch_f"
      }
    }
  }
  attr {
    key: "_output_shapes"
    value {
      list {
        shape {
        }
      }
    }
  }
}
node {
  name: "dnn/input_from_feature_columns/input_layer/dayofweek_X_hourofday_embedding/assert_less_than_num_buckets_1/Assert/AssertGuard/Merge"
  op: "Merge"
  input: "dnn/input_from_feature_columns/input_layer/dayofweek_X_hourofday_embedding/assert_less_than_num_buckets_1/Assert/AssertGuard/control_dependency_1"
  input: "dnn/input_from_feature_columns/input_layer/dayofweek_X_hourofday_embedding/assert_less_than_num_buckets_1/Assert/AssertGuard/control_dependency"
  attr {
    key: "N"
    value {
      i: 2
    }
  }
  attr {
    key: "T"
    value {
      type: DT_BOOL
    }
  }
  attr {
    key: "_output_shapes"
    value {
      list {
        shape {
        }
        shape {
        }
      }
    }
  }
}
node {
  name: "dnn/input_from_feature_columns/input_layer/dayofweek_X_hourofday_embedding/assert_greater_or_equal_0_1/GreaterEqual"
  op: "GreaterEqual"
  input: "dnn/input_from_feature_columns/input_layer/dayofweek_X_hourofday_embedding/values_1"
  input: "dnn/input_from_feature_columns/input_layer/dayofweek_X_hourofday_embedding/zero_1"
  attr {
    key: "T"
    value {
      type: DT_INT64
    }
  }
  attr {
    key: "_output_shapes"
    value {
      list {
        shape {
          dim {
            size: -1
          }
        }
      }
    }
  }
}
node {
  name: "dnn/input_from_feature_columns/input_layer/dayofweek_X_hourofday_embedding/assert_greater_or_equal_0_1/Const"
  op: "Const"
  attr {
    key: "_output_shapes"
    value {
      list {
        shape {
          dim {
            size: 1
          }
        }
      }
    }
  }
  attr {
    key: "dtype"
    value {
      type: DT_INT32
    }
  }
  attr {
    key: "value"
    value {
      tensor {
        dtype: DT_INT32
        tensor_shape {
          dim {
            size: 1
          }
        }
        int_val: 0
      }
    }
  }
}
node {
  name: "dnn/input_from_feature_columns/input_layer/dayofweek_X_hourofday_embedding/assert_greater_or_equal_0_1/All"
  op: "All"
  input: "dnn/input_from_feature_columns/input_layer/dayofweek_X_hourofday_embedding/assert_greater_or_equal_0_1/GreaterEqual"
  input: "dnn/input_from_feature_columns/input_layer/dayofweek_X_hourofday_embedding/assert_greater_or_equal_0_1/Const"
  attr {
    key: "Tidx"
    value {
      type: DT_INT32
    }
  }
  attr {
    key: "_output_shapes"
    value {
      list {
        shape {
        }
      }
    }
  }
  attr {
    key: "keep_dims"
    value {
      b: false
    }
  }
}
node {
  name: "dnn/input_from_feature_columns/input_layer/dayofweek_X_hourofday_embedding/assert_greater_or_equal_0_1/Assert/Const"
  op: "Const"
  attr {
    key: "_output_shapes"
    value {
      list {
        shape {
        }
      }
    }
  }
  attr {
    key: "dtype"
    value {
      type: DT_STRING
    }
  }
  attr {
    key: "value"
    value {
      tensor {
        dtype: DT_STRING
        tensor_shape {
        }
        string_val: "Negative bucket index for categorical column \"hourofday\""
      }
    }
  }
}
node {
  name: "dnn/input_from_feature_columns/input_layer/dayofweek_X_hourofday_embedding/assert_greater_or_equal_0_1/Assert/AssertGuard/Switch"
  op: "Switch"
  input: "dnn/input_from_feature_columns/input_layer/dayofweek_X_hourofday_embedding/assert_greater_or_equal_0_1/All"
  input: "dnn/input_from_feature_columns/input_layer/dayofweek_X_hourofday_embedding/assert_greater_or_equal_0_1/All"
  attr {
    key: "T"
    value {
      type: DT_BOOL
    }
  }
  attr {
    key: "_output_shapes"
    value {
      list {
        shape {
        }
        shape {
        }
      }
    }
  }
}
node {
  name: "dnn/input_from_feature_columns/input_layer/dayofweek_X_hourofday_embedding/assert_greater_or_equal_0_1/Assert/AssertGuard/switch_t"
  op: "Identity"
  input: "dnn/input_from_feature_columns/input_layer/dayofweek_X_hourofday_embedding/assert_greater_or_equal_0_1/Assert/AssertGuard/Switch:1"
  attr {
    key: "T"
    value {
      type: DT_BOOL
    }
  }
  attr {
    key: "_output_shapes"
    value {
      list {
        shape {
        }
      }
    }
  }
}
node {
  name: "dnn/input_from_feature_columns/input_layer/dayofweek_X_hourofday_embedding/assert_greater_or_equal_0_1/Assert/AssertGuard/switch_f"
  op: "Identity"
  input: "dnn/input_from_feature_columns/input_layer/dayofweek_X_hourofday_embedding/assert_greater_or_equal_0_1/Assert/AssertGuard/Switch"
  attr {
    key: "T"
    value {
      type: DT_BOOL
    }
  }
  attr {
    key: "_output_shapes"
    value {
      list {
        shape {
        }
      }
    }
  }
}
node {
  name: "dnn/input_from_feature_columns/input_layer/dayofweek_X_hourofday_embedding/assert_greater_or_equal_0_1/Assert/AssertGuard/pred_id"
  op: "Identity"
  input: "dnn/input_from_feature_columns/input_layer/dayofweek_X_hourofday_embedding/assert_greater_or_equal_0_1/All"
  attr {
    key: "T"
    value {
      type: DT_BOOL
    }
  }
  attr {
    key: "_output_shapes"
    value {
      list {
        shape {
        }
      }
    }
  }
}
node {
  name: "dnn/input_from_feature_columns/input_layer/dayofweek_X_hourofday_embedding/assert_greater_or_equal_0_1/Assert/AssertGuard/NoOp"
  op: "NoOp"
  input: "^dnn/input_from_feature_columns/input_layer/dayofweek_X_hourofday_embedding/assert_greater_or_equal_0_1/Assert/AssertGuard/switch_t"
}
node {
  name: "dnn/input_from_feature_columns/input_layer/dayofweek_X_hourofday_embedding/assert_greater_or_equal_0_1/Assert/AssertGuard/control_dependency"
  op: "Identity"
  input: "dnn/input_from_feature_columns/input_layer/dayofweek_X_hourofday_embedding/assert_greater_or_equal_0_1/Assert/AssertGuard/switch_t"
  input: "^dnn/input_from_feature_columns/input_layer/dayofweek_X_hourofday_embedding/assert_greater_or_equal_0_1/Assert/AssertGuard/NoOp"
  attr {
    key: "T"
    value {
      type: DT_BOOL
    }
  }
  attr {
    key: "_class"
    value {
      list {
        s: "loc:@dnn/input_from_feature_columns/input_layer/dayofweek_X_hourofday_embedding/assert_greater_or_equal_0_1/Assert/AssertGuard/switch_t"
      }
    }
  }
  attr {
    key: "_output_shapes"
    value {
      list {
        shape {
        }
      }
    }
  }
}
node {
  name: "dnn/input_from_feature_columns/input_layer/dayofweek_X_hourofday_embedding/assert_greater_or_equal_0_1/Assert/AssertGuard/Assert/data_0"
  op: "Const"
  input: "^dnn/input_from_feature_columns/input_layer/dayofweek_X_hourofday_embedding/assert_greater_or_equal_0_1/Assert/AssertGuard/switch_f"
  attr {
    key: "_output_shapes"
    value {
      list {
        shape {
        }
      }
    }
  }
  attr {
    key: "dtype"
    value {
      type: DT_STRING
    }
  }
  attr {
    key: "value"
    value {
      tensor {
        dtype: DT_STRING
        tensor_shape {
        }
        string_val: "Negative bucket index for categorical column \"hourofday\""
      }
    }
  }
}
node {
  name: "dnn/input_from_feature_columns/input_layer/dayofweek_X_hourofday_embedding/assert_greater_or_equal_0_1/Assert/AssertGuard/Assert"
  op: "Assert"
  input: "dnn/input_from_feature_columns/input_layer/dayofweek_X_hourofday_embedding/assert_greater_or_equal_0_1/Assert/AssertGuard/Assert/Switch"
  input: "dnn/input_from_feature_columns/input_layer/dayofweek_X_hourofday_embedding/assert_greater_or_equal_0_1/Assert/AssertGuard/Assert/data_0"
  input: "dnn/input_from_feature_columns/input_layer/dayofweek_X_hourofday_embedding/assert_greater_or_equal_0_1/Assert/AssertGuard/Assert/Switch_1"
  attr {
    key: "T"
    value {
      list {
        type: DT_STRING
        type: DT_INT64
      }
    }
  }
  attr {
    key: "summarize"
    value {
      i: 3
    }
  }
}
node {
  name: "dnn/input_from_feature_columns/input_layer/dayofweek_X_hourofday_embedding/assert_greater_or_equal_0_1/Assert/AssertGuard/Assert/Switch"
  op: "Switch"
  input: "dnn/input_from_feature_columns/input_layer/dayofweek_X_hourofday_embedding/assert_greater_or_equal_0_1/All"
  input: "dnn/input_from_feature_columns/input_layer/dayofweek_X_hourofday_embedding/assert_greater_or_equal_0_1/Assert/AssertGuard/pred_id"
  attr {
    key: "T"
    value {
      type: DT_BOOL
    }
  }
  attr {
    key: "_class"
    value {
      list {
        s: "loc:@dnn/input_from_feature_columns/input_layer/dayofweek_X_hourofday_embedding/assert_greater_or_equal_0_1/All"
      }
    }
  }
  attr {
    key: "_output_shapes"
    value {
      list {
        shape {
        }
        shape {
        }
      }
    }
  }
}
node {
  name: "dnn/input_from_feature_columns/input_layer/dayofweek_X_hourofday_embedding/assert_greater_or_equal_0_1/Assert/AssertGuard/Assert/Switch_1"
  op: "Switch"
  input: "dnn/input_from_feature_columns/input_layer/dayofweek_X_hourofday_embedding/values_1"
  input: "dnn/input_from_feature_columns/input_layer/dayofweek_X_hourofday_embedding/assert_greater_or_equal_0_1/Assert/AssertGuard/pred_id"
  attr {
    key: "T"
    value {
      type: DT_INT64
    }
  }
  attr {
    key: "_class"
    value {
      list {
        s: "loc:@dnn/input_from_feature_columns/input_layer/dayofweek_X_hourofday_embedding/values_1"
      }
    }
  }
  attr {
    key: "_output_shapes"
    value {
      list {
        shape {
          dim {
            size: -1
          }
        }
        shape {
          dim {
            size: -1
          }
        }
      }
    }
  }
}
node {
  name: "dnn/input_from_feature_columns/input_layer/dayofweek_X_hourofday_embedding/assert_greater_or_equal_0_1/Assert/AssertGuard/control_dependency_1"
  op: "Identity"
  input: "dnn/input_from_feature_columns/input_layer/dayofweek_X_hourofday_embedding/assert_greater_or_equal_0_1/Assert/AssertGuard/switch_f"
  input: "^dnn/input_from_feature_columns/input_layer/dayofweek_X_hourofday_embedding/assert_greater_or_equal_0_1/Assert/AssertGuard/Assert"
  attr {
    key: "T"
    value {
      type: DT_BOOL
    }
  }
  attr {
    key: "_class"
    value {
      list {
        s: "loc:@dnn/input_from_feature_columns/input_layer/dayofweek_X_hourofday_embedding/assert_greater_or_equal_0_1/Assert/AssertGuard/switch_f"
      }
    }
  }
  attr {
    key: "_output_shapes"
    value {
      list {
        shape {
        }
      }
    }
  }
}
node {
  name: "dnn/input_from_feature_columns/input_layer/dayofweek_X_hourofday_embedding/assert_greater_or_equal_0_1/Assert/AssertGuard/Merge"
  op: "Merge"
  input: "dnn/input_from_feature_columns/input_layer/dayofweek_X_hourofday_embedding/assert_greater_or_equal_0_1/Assert/AssertGuard/control_dependency_1"
  input: "dnn/input_from_feature_columns/input_layer/dayofweek_X_hourofday_embedding/assert_greater_or_equal_0_1/Assert/AssertGuard/control_dependency"
  attr {
    key: "N"
    value {
      i: 2
    }
  }
  attr {
    key: "T"
    value {
      type: DT_BOOL
    }
  }
  attr {
    key: "_output_shapes"
    value {
      list {
        shape {
        }
        shape {
        }
      }
    }
  }
}
node {
  name: "dnn/input_from_feature_columns/input_layer/dayofweek_X_hourofday_embedding/Identity_1"
  op: "Identity"
  input: "dnn/input_from_feature_columns/input_layer/dayofweek_X_hourofday_embedding/values_1"
  input: "^dnn/input_from_feature_columns/input_layer/dayofweek_X_hourofday_embedding/assert_greater_or_equal_0_1/Assert/AssertGuard/Merge"
  input: "^dnn/input_from_feature_columns/input_layer/dayofweek_X_hourofday_embedding/assert_less_than_num_buckets_1/Assert/AssertGuard/Merge"
  attr {
    key: "T"
    value {
      type: DT_INT64
    }
  }
  attr {
    key: "_output_shapes"
    value {
      list {
        shape {
          dim {
            size: -1
          }
        }
      }
    }
  }
}
node {
  name: "dnn/input_from_feature_columns/input_layer/dayofweek_X_hourofday_embedding/SparseCross"
  op: "SparseCross"
  input: "dnn/input_from_feature_columns/input_layer/dayofweek_X_hourofday_embedding/to_sparse_input/indices"
  input: "dnn/input_from_feature_columns/input_layer/dayofweek_X_hourofday_embedding/to_sparse_input_1/indices"
  input: "dnn/input_from_feature_columns/input_layer/dayofweek_X_hourofday_embedding/Identity"
  input: "dnn/input_from_feature_columns/input_layer/dayofweek_X_hourofday_embedding/Identity_1"
  input: "dnn/input_from_feature_columns/input_layer/dayofweek_X_hourofday_embedding/to_sparse_input/dense_shape"
  input: "dnn/input_from_feature_columns/input_layer/dayofweek_X_hourofday_embedding/to_sparse_input_1/dense_shape"
  attr {
    key: "N"
    value {
      i: 2
    }
  }
  attr {
    key: "_output_shapes"
    value {
      list {
        shape {
          dim {
            size: -1
          }
          dim {
            size: 2
          }
        }
        shape {
          dim {
            size: -1
          }
        }
        shape {
          dim {
            size: 2
          }
        }
      }
    }
  }
  attr {
    key: "dense_types"
    value {
      list {
      }
    }
  }
  attr {
    key: "hash_key"
    value {
      i: 956888297470
    }
  }
  attr {
    key: "hashed_output"
    value {
      b: true
    }
  }
  attr {
    key: "internal_type"
    value {
      type: DT_INT64
    }
  }
  attr {
    key: "num_buckets"
    value {
      i: 168
    }
  }
  attr {
    key: "out_type"
    value {
      type: DT_INT64
    }
  }
  attr {
    key: "sparse_types"
    value {
      list {
        type: DT_INT64
        type: DT_INT64
      }
    }
  }
}
node {
  name: "dnn/input_from_feature_columns/input_layer/dayofweek_X_hourofday_embedding/dayofweek_X_hourofday_embedding_weights/Slice/begin"
  op: "Const"
  attr {
    key: "_output_shapes"
    value {
      list {
        shape {
          dim {
            size: 1
          }
        }
      }
    }
  }
  attr {
    key: "dtype"
    value {
      type: DT_INT32
    }
  }
  attr {
    key: "value"
    value {
      tensor {
        dtype: DT_INT32
        tensor_shape {
          dim {
            size: 1
          }
        }
        int_val: 0
      }
    }
  }
}
node {
  name: "dnn/input_from_feature_columns/input_layer/dayofweek_X_hourofday_embedding/dayofweek_X_hourofday_embedding_weights/Slice/size"
  op: "Const"
  attr {
    key: "_output_shapes"
    value {
      list {
        shape {
          dim {
            size: 1
          }
        }
      }
    }
  }
  attr {
    key: "dtype"
    value {
      type: DT_INT32
    }
  }
  attr {
    key: "value"
    value {
      tensor {
        dtype: DT_INT32
        tensor_shape {
          dim {
            size: 1
          }
        }
        int_val: 1
      }
    }
  }
}
node {
  name: "dnn/input_from_feature_columns/input_layer/dayofweek_X_hourofday_embedding/dayofweek_X_hourofday_embedding_weights/Slice"
  op: "Slice"
  input: "dnn/input_from_feature_columns/input_layer/dayofweek_X_hourofday_embedding/SparseCross:2"
  input: "dnn/input_from_feature_columns/input_layer/dayofweek_X_hourofday_embedding/dayofweek_X_hourofday_embedding_weights/Slice/begin"
  input: "dnn/input_from_feature_columns/input_layer/dayofweek_X_hourofday_embedding/dayofweek_X_hourofday_embedding_weights/Slice/size"
  attr {
    key: "Index"
    value {
      type: DT_INT32
    }
  }
  attr {
    key: "T"
    value {
      type: DT_INT64
    }
  }
  attr {
    key: "_output_shapes"
    value {
      list {
        shape {
          dim {
            size: 1
          }
        }
      }
    }
  }
}
node {
  name: "dnn/input_from_feature_columns/input_layer/dayofweek_X_hourofday_embedding/dayofweek_X_hourofday_embedding_weights/Const"
  op: "Const"
  attr {
    key: "_output_shapes"
    value {
      list {
        shape {
          dim {
            size: 1
          }
        }
      }
    }
  }
  attr {
    key: "dtype"
    value {
      type: DT_INT32
    }
  }
  attr {
    key: "value"
    value {
      tensor {
        dtype: DT_INT32
        tensor_shape {
          dim {
            size: 1
          }
        }
        int_val: 0
      }
    }
  }
}
node {
  name: "dnn/input_from_feature_columns/input_layer/dayofweek_X_hourofday_embedding/dayofweek_X_hourofday_embedding_weights/Prod"
  op: "Prod"
  input: "dnn/input_from_feature_columns/input_layer/dayofweek_X_hourofday_embedding/dayofweek_X_hourofday_embedding_weights/Slice"
  input: "dnn/input_from_feature_columns/input_layer/dayofweek_X_hourofday_embedding/dayofweek_X_hourofday_embedding_weights/Const"
  attr {
    key: "T"
    value {
      type: DT_INT64
    }
  }
  attr {
    key: "Tidx"
    value {
      type: DT_INT32
    }
  }
  attr {
    key: "_output_shapes"
    value {
      list {
        shape {
        }
      }
    }
  }
  attr {
    key: "keep_dims"
    value {
      b: false
    }
  }
}
node {
  name: "dnn/input_from_feature_columns/input_layer/dayofweek_X_hourofday_embedding/dayofweek_X_hourofday_embedding_weights/GatherV2/indices"
  op: "Const"
  attr {
    key: "_output_shapes"
    value {
      list {
        shape {
        }
      }
    }
  }
  attr {
    key: "dtype"
    value {
      type: DT_INT32
    }
  }
  attr {
    key: "value"
    value {
      tensor {
        dtype: DT_INT32
        tensor_shape {
        }
        int_val: 1
      }
    }
  }
}
node {
  name: "dnn/input_from_feature_columns/input_layer/dayofweek_X_hourofday_embedding/dayofweek_X_hourofday_embedding_weights/GatherV2/axis"
  op: "Const"
  attr {
    key: "_output_shapes"
    value {
      list {
        shape {
        }
      }
    }
  }
  attr {
    key: "dtype"
    value {
      type: DT_INT32
    }
  }
  attr {
    key: "value"
    value {
      tensor {
        dtype: DT_INT32
        tensor_shape {
        }
        int_val: 0
      }
    }
  }
}
node {
  name: "dnn/input_from_feature_columns/input_layer/dayofweek_X_hourofday_embedding/dayofweek_X_hourofday_embedding_weights/GatherV2"
  op: "GatherV2"
  input: "dnn/input_from_feature_columns/input_layer/dayofweek_X_hourofday_embedding/SparseCross:2"
  input: "dnn/input_from_feature_columns/input_layer/dayofweek_X_hourofday_embedding/dayofweek_X_hourofday_embedding_weights/GatherV2/indices"
  input: "dnn/input_from_feature_columns/input_layer/dayofweek_X_hourofday_embedding/dayofweek_X_hourofday_embedding_weights/GatherV2/axis"
  attr {
    key: "Taxis"
    value {
      type: DT_INT32
    }
  }
  attr {
    key: "Tindices"
    value {
      type: DT_INT32
    }
  }
  attr {
    key: "Tparams"
    value {
      type: DT_INT64
    }
  }
  attr {
    key: "_output_shapes"
    value {
      list {
        shape {
        }
      }
    }
  }
  attr {
    key: "batch_dims"
    value {
      i: 0
    }
  }
}
node {
  name: "dnn/input_from_feature_columns/input_layer/dayofweek_X_hourofday_embedding/dayofweek_X_hourofday_embedding_weights/Cast/x"
  op: "Pack"
  input: "dnn/input_from_feature_columns/input_layer/dayofweek_X_hourofday_embedding/dayofweek_X_hourofday_embedding_weights/Prod"
  input: "dnn/input_from_feature_columns/input_layer/dayofweek_X_hourofday_embedding/dayofweek_X_hourofday_embedding_weights/GatherV2"
  attr {
    key: "N"
    value {
      i: 2
    }
  }
  attr {
    key: "T"
    value {
      type: DT_INT64
    }
  }
  attr {
    key: "_output_shapes"
    value {
      list {
        shape {
          dim {
            size: 2
          }
        }
      }
    }
  }
  attr {
    key: "axis"
    value {
      i: 0
    }
  }
}
node {
  name: "dnn/input_from_feature_columns/input_layer/dayofweek_X_hourofday_embedding/dayofweek_X_hourofday_embedding_weights/SparseReshape"
  op: "SparseReshape"
  input: "dnn/input_from_feature_columns/input_layer/dayofweek_X_hourofday_embedding/SparseCross"
  input: "dnn/input_from_feature_columns/input_layer/dayofweek_X_hourofday_embedding/SparseCross:2"
  input: "dnn/input_from_feature_columns/input_layer/dayofweek_X_hourofday_embedding/dayofweek_X_hourofday_embedding_weights/Cast/x"
  attr {
    key: "_output_shapes"
    value {
      list {
        shape {
          dim {
            size: -1
          }
          dim {
            size: 2
          }
        }
        shape {
          dim {
            size: 2
          }
        }
      }
    }
  }
}
node {
  name: "dnn/input_from_feature_columns/input_layer/dayofweek_X_hourofday_embedding/dayofweek_X_hourofday_embedding_weights/SparseReshape/Identity"
  op: "Identity"
  input: "dnn/input_from_feature_columns/input_layer/dayofweek_X_hourofday_embedding/SparseCross:1"
  attr {
    key: "T"
    value {
      type: DT_INT64
    }
  }
  attr {
    key: "_output_shapes"
    value {
      list {
        shape {
          dim {
            size: -1
          }
        }
      }
    }
  }
}
node {
  name: "dnn/input_from_feature_columns/input_layer/dayofweek_X_hourofday_embedding/dayofweek_X_hourofday_embedding_weights/GreaterEqual/y"
  op: "Const"
  attr {
    key: "_output_shapes"
    value {
      list {
        shape {
        }
      }
    }
  }
  attr {
    key: "dtype"
    value {
      type: DT_INT64
    }
  }
  attr {
    key: "value"
    value {
      tensor {
        dtype: DT_INT64
        tensor_shape {
        }
        int64_val: 0
      }
    }
  }
}
node {
  name: "dnn/input_from_feature_columns/input_layer/dayofweek_X_hourofday_embedding/dayofweek_X_hourofday_embedding_weights/GreaterEqual"
  op: "GreaterEqual"
  input: "dnn/input_from_feature_columns/input_layer/dayofweek_X_hourofday_embedding/dayofweek_X_hourofday_embedding_weights/SparseReshape/Identity"
  input: "dnn/input_from_feature_columns/input_layer/dayofweek_X_hourofday_embedding/dayofweek_X_hourofday_embedding_weights/GreaterEqual/y"
  attr {
    key: "T"
    value {
      type: DT_INT64
    }
  }
  attr {
    key: "_output_shapes"
    value {
      list {
        shape {
          dim {
            size: -1
          }
        }
      }
    }
  }
}
node {
  name: "dnn/input_from_feature_columns/input_layer/dayofweek_X_hourofday_embedding/dayofweek_X_hourofday_embedding_weights/Where"
  op: "Where"
  input: "dnn/input_from_feature_columns/input_layer/dayofweek_X_hourofday_embedding/dayofweek_X_hourofday_embedding_weights/GreaterEqual"
  attr {
    key: "T"
    value {
      type: DT_BOOL
    }
  }
  attr {
    key: "_output_shapes"
    value {
      list {
        shape {
          dim {
            size: -1
          }
          dim {
            size: 1
          }
        }
      }
    }
  }
}
node {
  name: "dnn/input_from_feature_columns/input_layer/dayofweek_X_hourofday_embedding/dayofweek_X_hourofday_embedding_weights/Reshape/shape"
  op: "Const"
  attr {
    key: "_output_shapes"
    value {
      list {
        shape {
          dim {
            size: 1
          }
        }
      }
    }
  }
  attr {
    key: "dtype"
    value {
      type: DT_INT32
    }
  }
  attr {
    key: "value"
    value {
      tensor {
        dtype: DT_INT32
        tensor_shape {
          dim {
            size: 1
          }
        }
        int_val: -1
      }
    }
  }
}
node {
  name: "dnn/input_from_feature_columns/input_layer/dayofweek_X_hourofday_embedding/dayofweek_X_hourofday_embedding_weights/Reshape"
  op: "Reshape"
  input: "dnn/input_from_feature_columns/input_layer/dayofweek_X_hourofday_embedding/dayofweek_X_hourofday_embedding_weights/Where"
  input: "dnn/input_from_feature_columns/input_layer/dayofweek_X_hourofday_embedding/dayofweek_X_hourofday_embedding_weights/Reshape/shape"
  attr {
    key: "T"
    value {
      type: DT_INT64
    }
  }
  attr {
    key: "Tshape"
    value {
      type: DT_INT32
    }
  }
  attr {
    key: "_output_shapes"
    value {
      list {
        shape {
          dim {
            size: -1
          }
        }
      }
    }
  }
}
node {
  name: "dnn/input_from_feature_columns/input_layer/dayofweek_X_hourofday_embedding/dayofweek_X_hourofday_embedding_weights/GatherV2_1/axis"
  op: "Const"
  attr {
    key: "_output_shapes"
    value {
      list {
        shape {
        }
      }
    }
  }
  attr {
    key: "dtype"
    value {
      type: DT_INT32
    }
  }
  attr {
    key: "value"
    value {
      tensor {
        dtype: DT_INT32
        tensor_shape {
        }
        int_val: 0
      }
    }
  }
}
node {
  name: "dnn/input_from_feature_columns/input_layer/dayofweek_X_hourofday_embedding/dayofweek_X_hourofday_embedding_weights/GatherV2_1"
  op: "GatherV2"
  input: "dnn/input_from_feature_columns/input_layer/dayofweek_X_hourofday_embedding/dayofweek_X_hourofday_embedding_weights/SparseReshape"
  input: "dnn/input_from_feature_columns/input_layer/dayofweek_X_hourofday_embedding/dayofweek_X_hourofday_embedding_weights/Reshape"
  input: "dnn/input_from_feature_columns/input_layer/dayofweek_X_hourofday_embedding/dayofweek_X_hourofday_embedding_weights/GatherV2_1/axis"
  attr {
    key: "Taxis"
    value {
      type: DT_INT32
    }
  }
  attr {
    key: "Tindices"
    value {
      type: DT_INT64
    }
  }
  attr {
    key: "Tparams"
    value {
      type: DT_INT64
    }
  }
  attr {
    key: "_output_shapes"
    value {
      list {
        shape {
          dim {
            size: -1
          }
          dim {
            size: 2
          }
        }
      }
    }
  }
  attr {
    key: "batch_dims"
    value {
      i: 0
    }
  }
}
node {
  name: "dnn/input_from_feature_columns/input_layer/dayofweek_X_hourofday_embedding/dayofweek_X_hourofday_embedding_weights/GatherV2_2/axis"
  op: "Const"
  attr {
    key: "_output_shapes"
    value {
      list {
        shape {
        }
      }
    }
  }
  attr {
    key: "dtype"
    value {
      type: DT_INT32
    }
  }
  attr {
    key: "value"
    value {
      tensor {
        dtype: DT_INT32
        tensor_shape {
        }
        int_val: 0
      }
    }
  }
}
node {
  name: "dnn/input_from_feature_columns/input_layer/dayofweek_X_hourofday_embedding/dayofweek_X_hourofday_embedding_weights/GatherV2_2"
  op: "GatherV2"
  input: "dnn/input_from_feature_columns/input_layer/dayofweek_X_hourofday_embedding/dayofweek_X_hourofday_embedding_weights/SparseReshape/Identity"
  input: "dnn/input_from_feature_columns/input_layer/dayofweek_X_hourofday_embedding/dayofweek_X_hourofday_embedding_weights/Reshape"
  input: "dnn/input_from_feature_columns/input_layer/dayofweek_X_hourofday_embedding/dayofweek_X_hourofday_embedding_weights/GatherV2_2/axis"
  attr {
    key: "Taxis"
    value {
      type: DT_INT32
    }
  }
  attr {
    key: "Tindices"
    value {
      type: DT_INT64
    }
  }
  attr {
    key: "Tparams"
    value {
      type: DT_INT64
    }
  }
  attr {
    key: "_output_shapes"
    value {
      list {
        shape {
          dim {
            size: -1
          }
        }
      }
    }
  }
  attr {
    key: "batch_dims"
    value {
      i: 0
    }
  }
}
node {
  name: "dnn/input_from_feature_columns/input_layer/dayofweek_X_hourofday_embedding/dayofweek_X_hourofday_embedding_weights/Identity"
  op: "Identity"
  input: "dnn/input_from_feature_columns/input_layer/dayofweek_X_hourofday_embedding/dayofweek_X_hourofday_embedding_weights/SparseReshape:1"
  attr {
    key: "T"
    value {
      type: DT_INT64
    }
  }
  attr {
    key: "_output_shapes"
    value {
      list {
        shape {
          dim {
            size: 2
          }
        }
      }
    }
  }
}
node {
  name: "dnn/input_from_feature_columns/input_layer/dayofweek_X_hourofday_embedding/dayofweek_X_hourofday_embedding_weights/SparseFillEmptyRows/Const"
  op: "Const"
  attr {
    key: "_output_shapes"
    value {
      list {
        shape {
        }
      }
    }
  }
  attr {
    key: "dtype"
    value {
      type: DT_INT64
    }
  }
  attr {
    key: "value"
    value {
      tensor {
        dtype: DT_INT64
        tensor_shape {
        }
        int64_val: 0
      }
    }
  }
}
node {
  name: "dnn/input_from_feature_columns/input_layer/dayofweek_X_hourofday_embedding/dayofweek_X_hourofday_embedding_weights/SparseFillEmptyRows/SparseFillEmptyRows"
  op: "SparseFillEmptyRows"
  input: "dnn/input_from_feature_columns/input_layer/dayofweek_X_hourofday_embedding/dayofweek_X_hourofday_embedding_weights/GatherV2_1"
  input: "dnn/input_from_feature_columns/input_layer/dayofweek_X_hourofday_embedding/dayofweek_X_hourofday_embedding_weights/GatherV2_2"
  input: "dnn/input_from_feature_columns/input_layer/dayofweek_X_hourofday_embedding/dayofweek_X_hourofday_embedding_weights/Identity"
  input: "dnn/input_from_feature_columns/input_layer/dayofweek_X_hourofday_embedding/dayofweek_X_hourofday_embedding_weights/SparseFillEmptyRows/Const"
  attr {
    key: "T"
    value {
      type: DT_INT64
    }
  }
  attr {
    key: "_output_shapes"
    value {
      list {
        shape {
          dim {
            size: -1
          }
          dim {
            size: 2
          }
        }
        shape {
          dim {
            size: -1
          }
        }
        shape {
          dim {
            size: -1
          }
        }
        shape {
          dim {
            size: -1
          }
        }
      }
    }
  }
}
node {
  name: "dnn/input_from_feature_columns/input_layer/dayofweek_X_hourofday_embedding/dayofweek_X_hourofday_embedding_weights/embedding_lookup_sparse/strided_slice/stack"
  op: "Const"
  attr {
    key: "_output_shapes"
    value {
      list {
        shape {
          dim {
            size: 2
          }
        }
      }
    }
  }
  attr {
    key: "dtype"
    value {
      type: DT_INT32
    }
  }
  attr {
    key: "value"
    value {
      tensor {
        dtype: DT_INT32
        tensor_shape {
          dim {
            size: 2
          }
        }
        tensor_content: "\000\000\000\000\000\000\000\000"
      }
    }
  }
}
node {
  name: "dnn/input_from_feature_columns/input_layer/dayofweek_X_hourofday_embedding/dayofweek_X_hourofday_embedding_weights/embedding_lookup_sparse/strided_slice/stack_1"
  op: "Const"
  attr {
    key: "_output_shapes"
    value {
      list {
        shape {
          dim {
            size: 2
          }
        }
      }
    }
  }
  attr {
    key: "dtype"
    value {
      type: DT_INT32
    }
  }
  attr {
    key: "value"
    value {
      tensor {
        dtype: DT_INT32
        tensor_shape {
          dim {
            size: 2
          }
        }
        tensor_content: "\000\000\000\000\001\000\000\000"
      }
    }
  }
}
node {
  name: "dnn/input_from_feature_columns/input_layer/dayofweek_X_hourofday_embedding/dayofweek_X_hourofday_embedding_weights/embedding_lookup_sparse/strided_slice/stack_2"
  op: "Const"
  attr {
    key: "_output_shapes"
    value {
      list {
        shape {
          dim {
            size: 2
          }
        }
      }
    }
  }
  attr {
    key: "dtype"
    value {
      type: DT_INT32
    }
  }
  attr {
    key: "value"
    value {
      tensor {
        dtype: DT_INT32
        tensor_shape {
          dim {
            size: 2
          }
        }
        tensor_content: "\001\000\000\000\001\000\000\000"
      }
    }
  }
}
node {
  name: "dnn/input_from_feature_columns/input_layer/dayofweek_X_hourofday_embedding/dayofweek_X_hourofday_embedding_weights/embedding_lookup_sparse/strided_slice"
  op: "StridedSlice"
  input: "dnn/input_from_feature_columns/input_layer/dayofweek_X_hourofday_embedding/dayofweek_X_hourofday_embedding_weights/SparseFillEmptyRows/SparseFillEmptyRows"
  input: "dnn/input_from_feature_columns/input_layer/dayofweek_X_hourofday_embedding/dayofweek_X_hourofday_embedding_weights/embedding_lookup_sparse/strided_slice/stack"
  input: "dnn/input_from_feature_columns/input_layer/dayofweek_X_hourofday_embedding/dayofweek_X_hourofday_embedding_weights/embedding_lookup_sparse/strided_slice/stack_1"
  input: "dnn/input_from_feature_columns/input_layer/dayofweek_X_hourofday_embedding/dayofweek_X_hourofday_embedding_weights/embedding_lookup_sparse/strided_slice/stack_2"
  attr {
    key: "Index"
    value {
      type: DT_INT32
    }
  }
  attr {
    key: "T"
    value {
      type: DT_INT64
    }
  }
  attr {
    key: "_output_shapes"
    value {
      list {
        shape {
          dim {
            size: -1
          }
        }
      }
    }
  }
  attr {
    key: "begin_mask"
    value {
      i: 1
    }
  }
  attr {
    key: "ellipsis_mask"
    value {
      i: 0
    }
  }
  attr {
    key: "end_mask"
    value {
      i: 1
    }
  }
  attr {
    key: "new_axis_mask"
    value {
      i: 0
    }
  }
  attr {
    key: "shrink_axis_mask"
    value {
      i: 2
    }
  }
}
node {
  name: "dnn/input_from_feature_columns/input_layer/dayofweek_X_hourofday_embedding/dayofweek_X_hourofday_embedding_weights/embedding_lookup_sparse/Cast"
  op: "Cast"
  input: "dnn/input_from_feature_columns/input_layer/dayofweek_X_hourofday_embedding/dayofweek_X_hourofday_embedding_weights/embedding_lookup_sparse/strided_slice"
  attr {
    key: "DstT"
    value {
      type: DT_INT32
    }
  }
  attr {
    key: "SrcT"
    value {
      type: DT_INT64
    }
  }
  attr {
    key: "Truncate"
    value {
      b: false
    }
  }
  attr {
    key: "_output_shapes"
    value {
      list {
        shape {
          dim {
            size: -1
          }
        }
      }
    }
  }
}
node {
  name: "dnn/input_from_feature_columns/input_layer/dayofweek_X_hourofday_embedding/dayofweek_X_hourofday_embedding_weights/embedding_lookup_sparse/Unique"
  op: "Unique"
  input: "dnn/input_from_feature_columns/input_layer/dayofweek_X_hourofday_embedding/dayofweek_X_hourofday_embedding_weights/SparseFillEmptyRows/SparseFillEmptyRows:1"
  attr {
    key: "T"
    value {
      type: DT_INT64
    }
  }
  attr {
    key: "_output_shapes"
    value {
      list {
        shape {
          dim {
            size: -1
          }
        }
        shape {
          dim {
            size: -1
          }
        }
      }
    }
  }
  attr {
    key: "out_idx"
    value {
      type: DT_INT32
    }
  }
}
node {
  name: "dnn/input_from_feature_columns/input_layer/dayofweek_X_hourofday_embedding/dayofweek_X_hourofday_embedding_weights/embedding_lookup_sparse/embedding_lookup"
  op: "ResourceGather"
  input: "dnn/input_from_feature_columns/input_layer/dayofweek_X_hourofday_embedding/embedding_weights/part_0"
  input: "dnn/input_from_feature_columns/input_layer/dayofweek_X_hourofday_embedding/dayofweek_X_hourofday_embedding_weights/embedding_lookup_sparse/Unique"
  attr {
    key: "Tindices"
    value {
      type: DT_INT64
    }
  }
  attr {
    key: "_class"
    value {
      list {
        s: "loc:@dnn/input_from_feature_columns/input_layer/dayofweek_X_hourofday_embedding/embedding_weights/part_0"
      }
    }
  }
  attr {
    key: "_output_shapes"
    value {
      list {
        shape {
          dim {
            size: -1
          }
          dim {
            size: 10
          }
        }
      }
    }
  }
  attr {
    key: "batch_dims"
    value {
      i: 0
    }
  }
  attr {
    key: "dtype"
    value {
      type: DT_FLOAT
    }
  }
  attr {
    key: "validate_indices"
    value {
      b: true
    }
  }
}
node {
  name: "dnn/input_from_feature_columns/input_layer/dayofweek_X_hourofday_embedding/dayofweek_X_hourofday_embedding_weights/embedding_lookup_sparse/embedding_lookup/Identity"
  op: "Identity"
  input: "dnn/input_from_feature_columns/input_layer/dayofweek_X_hourofday_embedding/dayofweek_X_hourofday_embedding_weights/embedding_lookup_sparse/embedding_lookup"
  attr {
    key: "T"
    value {
      type: DT_FLOAT
    }
  }
  attr {
    key: "_class"
    value {
      list {
        s: "loc:@dnn/input_from_feature_columns/input_layer/dayofweek_X_hourofday_embedding/embedding_weights/part_0"
      }
    }
  }
  attr {
    key: "_output_shapes"
    value {
      list {
        shape {
          dim {
            size: -1
          }
          dim {
            size: 10
          }
        }
      }
    }
  }
}
node {
  name: "dnn/input_from_feature_columns/input_layer/dayofweek_X_hourofday_embedding/dayofweek_X_hourofday_embedding_weights/embedding_lookup_sparse/embedding_lookup/Identity_1"
  op: "Identity"
  input: "dnn/input_from_feature_columns/input_layer/dayofweek_X_hourofday_embedding/dayofweek_X_hourofday_embedding_weights/embedding_lookup_sparse/embedding_lookup/Identity"
  attr {
    key: "T"
    value {
      type: DT_FLOAT
    }
  }
  attr {
    key: "_output_shapes"
    value {
      list {
        shape {
          dim {
            size: -1
          }
          dim {
            size: 10
          }
        }
      }
    }
  }
}
node {
  name: "dnn/input_from_feature_columns/input_layer/dayofweek_X_hourofday_embedding/dayofweek_X_hourofday_embedding_weights/embedding_lookup_sparse"
  op: "SparseSegmentMean"
  input: "dnn/input_from_feature_columns/input_layer/dayofweek_X_hourofday_embedding/dayofweek_X_hourofday_embedding_weights/embedding_lookup_sparse/embedding_lookup/Identity_1"
  input: "dnn/input_from_feature_columns/input_layer/dayofweek_X_hourofday_embedding/dayofweek_X_hourofday_embedding_weights/embedding_lookup_sparse/Unique:1"
  input: "dnn/input_from_feature_columns/input_layer/dayofweek_X_hourofday_embedding/dayofweek_X_hourofday_embedding_weights/embedding_lookup_sparse/Cast"
  attr {
    key: "T"
    value {
      type: DT_FLOAT
    }
  }
  attr {
    key: "Tidx"
    value {
      type: DT_INT32
    }
  }
  attr {
    key: "_output_shapes"
    value {
      list {
        shape {
          dim {
            size: -1
          }
          dim {
            size: 10
          }
        }
      }
    }
  }
}
node {
  name: "dnn/input_from_feature_columns/input_layer/dayofweek_X_hourofday_embedding/dayofweek_X_hourofday_embedding_weights/Reshape_1/shape"
  op: "Const"
  attr {
    key: "_output_shapes"
    value {
      list {
        shape {
          dim {
            size: 2
          }
        }
      }
    }
  }
  attr {
    key: "dtype"
    value {
      type: DT_INT32
    }
  }
  attr {
    key: "value"
    value {
      tensor {
        dtype: DT_INT32
        tensor_shape {
          dim {
            size: 2
          }
        }
        tensor_content: "\377\377\377\377\001\000\000\000"
      }
    }
  }
}
node {
  name: "dnn/input_from_feature_columns/input_layer/dayofweek_X_hourofday_embedding/dayofweek_X_hourofday_embedding_weights/Reshape_1"
  op: "Reshape"
  input: "dnn/input_from_feature_columns/input_layer/dayofweek_X_hourofday_embedding/dayofweek_X_hourofday_embedding_weights/SparseFillEmptyRows/SparseFillEmptyRows:2"
  input: "dnn/input_from_feature_columns/input_layer/dayofweek_X_hourofday_embedding/dayofweek_X_hourofday_embedding_weights/Reshape_1/shape"
  attr {
    key: "T"
    value {
      type: DT_BOOL
    }
  }
  attr {
    key: "Tshape"
    value {
      type: DT_INT32
    }
  }
  attr {
    key: "_output_shapes"
    value {
      list {
        shape {
          dim {
            size: -1
          }
          dim {
            size: 1
          }
        }
      }
    }
  }
}
node {
  name: "dnn/input_from_feature_columns/input_layer/dayofweek_X_hourofday_embedding/dayofweek_X_hourofday_embedding_weights/Shape"
  op: "Shape"
  input: "dnn/input_from_feature_columns/input_layer/dayofweek_X_hourofday_embedding/dayofweek_X_hourofday_embedding_weights/embedding_lookup_sparse"
  attr {
    key: "T"
    value {
      type: DT_FLOAT
    }
  }
  attr {
    key: "_output_shapes"
    value {
      list {
        shape {
          dim {
            size: 2
          }
        }
      }
    }
  }
  attr {
    key: "out_type"
    value {
      type: DT_INT32
    }
  }
}
node {
  name: "dnn/input_from_feature_columns/input_layer/dayofweek_X_hourofday_embedding/dayofweek_X_hourofday_embedding_weights/strided_slice/stack"
  op: "Const"
  attr {
    key: "_output_shapes"
    value {
      list {
        shape {
          dim {
            size: 1
          }
        }
      }
    }
  }
  attr {
    key: "dtype"
    value {
      type: DT_INT32
    }
  }
  attr {
    key: "value"
    value {
      tensor {
        dtype: DT_INT32
        tensor_shape {
          dim {
            size: 1
          }
        }
        int_val: 1
      }
    }
  }
}
node {
  name: "dnn/input_from_feature_columns/input_layer/dayofweek_X_hourofday_embedding/dayofweek_X_hourofday_embedding_weights/strided_slice/stack_1"
  op: "Const"
  attr {
    key: "_output_shapes"
    value {
      list {
        shape {
          dim {
            size: 1
          }
        }
      }
    }
  }
  attr {
    key: "dtype"
    value {
      type: DT_INT32
    }
  }
  attr {
    key: "value"
    value {
      tensor {
        dtype: DT_INT32
        tensor_shape {
          dim {
            size: 1
          }
        }
        int_val: 2
      }
    }
  }
}
node {
  name: "dnn/input_from_feature_columns/input_layer/dayofweek_X_hourofday_embedding/dayofweek_X_hourofday_embedding_weights/strided_slice/stack_2"
  op: "Const"
  attr {
    key: "_output_shapes"
    value {
      list {
        shape {
          dim {
            size: 1
          }
        }
      }
    }
  }
  attr {
    key: "dtype"
    value {
      type: DT_INT32
    }
  }
  attr {
    key: "value"
    value {
      tensor {
        dtype: DT_INT32
        tensor_shape {
          dim {
            size: 1
          }
        }
        int_val: 1
      }
    }
  }
}
node {
  name: "dnn/input_from_feature_columns/input_layer/dayofweek_X_hourofday_embedding/dayofweek_X_hourofday_embedding_weights/strided_slice"
  op: "StridedSlice"
  input: "dnn/input_from_feature_columns/input_layer/dayofweek_X_hourofday_embedding/dayofweek_X_hourofday_embedding_weights/Shape"
  input: "dnn/input_from_feature_columns/input_layer/dayofweek_X_hourofday_embedding/dayofweek_X_hourofday_embedding_weights/strided_slice/stack"
  input: "dnn/input_from_feature_columns/input_layer/dayofweek_X_hourofday_embedding/dayofweek_X_hourofday_embedding_weights/strided_slice/stack_1"
  input: "dnn/input_from_feature_columns/input_layer/dayofweek_X_hourofday_embedding/dayofweek_X_hourofday_embedding_weights/strided_slice/stack_2"
  attr {
    key: "Index"
    value {
      type: DT_INT32
    }
  }
  attr {
    key: "T"
    value {
      type: DT_INT32
    }
  }
  attr {
    key: "_output_shapes"
    value {
      list {
        shape {
        }
      }
    }
  }
  attr {
    key: "begin_mask"
    value {
      i: 0
    }
  }
  attr {
    key: "ellipsis_mask"
    value {
      i: 0
    }
  }
  attr {
    key: "end_mask"
    value {
      i: 0
    }
  }
  attr {
    key: "new_axis_mask"
    value {
      i: 0
    }
  }
  attr {
    key: "shrink_axis_mask"
    value {
      i: 1
    }
  }
}
node {
  name: "dnn/input_from_feature_columns/input_layer/dayofweek_X_hourofday_embedding/dayofweek_X_hourofday_embedding_weights/stack/0"
  op: "Const"
  attr {
    key: "_output_shapes"
    value {
      list {
        shape {
        }
      }
    }
  }
  attr {
    key: "dtype"
    value {
      type: DT_INT32
    }
  }
  attr {
    key: "value"
    value {
      tensor {
        dtype: DT_INT32
        tensor_shape {
        }
        int_val: 1
      }
    }
  }
}
node {
  name: "dnn/input_from_feature_columns/input_layer/dayofweek_X_hourofday_embedding/dayofweek_X_hourofday_embedding_weights/stack"
  op: "Pack"
  input: "dnn/input_from_feature_columns/input_layer/dayofweek_X_hourofday_embedding/dayofweek_X_hourofday_embedding_weights/stack/0"
  input: "dnn/input_from_feature_columns/input_layer/dayofweek_X_hourofday_embedding/dayofweek_X_hourofday_embedding_weights/strided_slice"
  attr {
    key: "N"
    value {
      i: 2
    }
  }
  attr {
    key: "T"
    value {
      type: DT_INT32
    }
  }
  attr {
    key: "_output_shapes"
    value {
      list {
        shape {
          dim {
            size: 2
          }
        }
      }
    }
  }
  attr {
    key: "axis"
    value {
      i: 0
    }
  }
}
node {
  name: "dnn/input_from_feature_columns/input_layer/dayofweek_X_hourofday_embedding/dayofweek_X_hourofday_embedding_weights/Tile"
  op: "Tile"
  input: "dnn/input_from_feature_columns/input_layer/dayofweek_X_hourofday_embedding/dayofweek_X_hourofday_embedding_weights/Reshape_1"
  input: "dnn/input_from_feature_columns/input_layer/dayofweek_X_hourofday_embedding/dayofweek_X_hourofday_embedding_weights/stack"
  attr {
    key: "T"
    value {
      type: DT_BOOL
    }
  }
  attr {
    key: "Tmultiples"
    value {
      type: DT_INT32
    }
  }
  attr {
    key: "_output_shapes"
    value {
      list {
        shape {
          dim {
            size: -1
          }
          dim {
            size: -1
          }
        }
      }
    }
  }
}
node {
  name: "dnn/input_from_feature_columns/input_layer/dayofweek_X_hourofday_embedding/dayofweek_X_hourofday_embedding_weights/zeros_like"
  op: "ZerosLike"
  input: "dnn/input_from_feature_columns/input_layer/dayofweek_X_hourofday_embedding/dayofweek_X_hourofday_embedding_weights/embedding_lookup_sparse"
  attr {
    key: "T"
    value {
      type: DT_FLOAT
    }
  }
  attr {
    key: "_output_shapes"
    value {
      list {
        shape {
          dim {
            size: -1
          }
          dim {
            size: 10
          }
        }
      }
    }
  }
}
node {
  name: "dnn/input_from_feature_columns/input_layer/dayofweek_X_hourofday_embedding/dayofweek_X_hourofday_embedding_weights"
  op: "Select"
  input: "dnn/input_from_feature_columns/input_layer/dayofweek_X_hourofday_embedding/dayofweek_X_hourofday_embedding_weights/Tile"
  input: "dnn/input_from_feature_columns/input_layer/dayofweek_X_hourofday_embedding/dayofweek_X_hourofday_embedding_weights/zeros_like"
  input: "dnn/input_from_feature_columns/input_layer/dayofweek_X_hourofday_embedding/dayofweek_X_hourofday_embedding_weights/embedding_lookup_sparse"
  attr {
    key: "T"
    value {
      type: DT_FLOAT
    }
  }
  attr {
    key: "_output_shapes"
    value {
      list {
        shape {
          dim {
            size: -1
          }
          dim {
            size: 10
          }
        }
      }
    }
  }
}
node {
  name: "dnn/input_from_feature_columns/input_layer/dayofweek_X_hourofday_embedding/dayofweek_X_hourofday_embedding_weights/Cast_1"
  op: "Cast"
  input: "dnn/input_from_feature_columns/input_layer/dayofweek_X_hourofday_embedding/SparseCross:2"
  attr {
    key: "DstT"
    value {
      type: DT_INT32
    }
  }
  attr {
    key: "SrcT"
    value {
      type: DT_INT64
    }
  }
  attr {
    key: "Truncate"
    value {
      b: false
    }
  }
  attr {
    key: "_output_shapes"
    value {
      list {
        shape {
          dim {
            size: 2
          }
        }
      }
    }
  }
}
node {
  name: "dnn/input_from_feature_columns/input_layer/dayofweek_X_hourofday_embedding/dayofweek_X_hourofday_embedding_weights/Slice_1/begin"
  op: "Const"
  attr {
    key: "_output_shapes"
    value {
      list {
        shape {
          dim {
            size: 1
          }
        }
      }
    }
  }
  attr {
    key: "dtype"
    value {
      type: DT_INT32
    }
  }
  attr {
    key: "value"
    value {
      tensor {
        dtype: DT_INT32
        tensor_shape {
          dim {
            size: 1
          }
        }
        int_val: 0
      }
    }
  }
}
node {
  name: "dnn/input_from_feature_columns/input_layer/dayofweek_X_hourofday_embedding/dayofweek_X_hourofday_embedding_weights/Slice_1/size"
  op: "Const"
  attr {
    key: "_output_shapes"
    value {
      list {
        shape {
          dim {
            size: 1
          }
        }
      }
    }
  }
  attr {
    key: "dtype"
    value {
      type: DT_INT32
    }
  }
  attr {
    key: "value"
    value {
      tensor {
        dtype: DT_INT32
        tensor_shape {
          dim {
            size: 1
          }
        }
        int_val: 1
      }
    }
  }
}
node {
  name: "dnn/input_from_feature_columns/input_layer/dayofweek_X_hourofday_embedding/dayofweek_X_hourofday_embedding_weights/Slice_1"
  op: "Slice"
  input: "dnn/input_from_feature_columns/input_layer/dayofweek_X_hourofday_embedding/dayofweek_X_hourofday_embedding_weights/Cast_1"
  input: "dnn/input_from_feature_columns/input_layer/dayofweek_X_hourofday_embedding/dayofweek_X_hourofday_embedding_weights/Slice_1/begin"
  input: "dnn/input_from_feature_columns/input_layer/dayofweek_X_hourofday_embedding/dayofweek_X_hourofday_embedding_weights/Slice_1/size"
  attr {
    key: "Index"
    value {
      type: DT_INT32
    }
  }
  attr {
    key: "T"
    value {
      type: DT_INT32
    }
  }
  attr {
    key: "_output_shapes"
    value {
      list {
        shape {
          dim {
            size: 1
          }
        }
      }
    }
  }
}
node {
  name: "dnn/input_from_feature_columns/input_layer/dayofweek_X_hourofday_embedding/dayofweek_X_hourofday_embedding_weights/Shape_1"
  op: "Shape"
  input: "dnn/input_from_feature_columns/input_layer/dayofweek_X_hourofday_embedding/dayofweek_X_hourofday_embedding_weights"
  attr {
    key: "T"
    value {
      type: DT_FLOAT
    }
  }
  attr {
    key: "_output_shapes"
    value {
      list {
        shape {
          dim {
            size: 2
          }
        }
      }
    }
  }
  attr {
    key: "out_type"
    value {
      type: DT_INT32
    }
  }
}
node {
  name: "dnn/input_from_feature_columns/input_layer/dayofweek_X_hourofday_embedding/dayofweek_X_hourofday_embedding_weights/Slice_2/begin"
  op: "Const"
  attr {
    key: "_output_shapes"
    value {
      list {
        shape {
          dim {
            size: 1
          }
        }
      }
    }
  }
  attr {
    key: "dtype"
    value {
      type: DT_INT32
    }
  }
  attr {
    key: "value"
    value {
      tensor {
        dtype: DT_INT32
        tensor_shape {
          dim {
            size: 1
          }
        }
        int_val: 1
      }
    }
  }
}
node {
  name: "dnn/input_from_feature_columns/input_layer/dayofweek_X_hourofday_embedding/dayofweek_X_hourofday_embedding_weights/Slice_2/size"
  op: "Const"
  attr {
    key: "_output_shapes"
    value {
      list {
        shape {
          dim {
            size: 1
          }
        }
      }
    }
  }
  attr {
    key: "dtype"
    value {
      type: DT_INT32
    }
  }
  attr {
    key: "value"
    value {
      tensor {
        dtype: DT_INT32
        tensor_shape {
          dim {
            size: 1
          }
        }
        int_val: -1
      }
    }
  }
}
node {
  name: "dnn/input_from_feature_columns/input_layer/dayofweek_X_hourofday_embedding/dayofweek_X_hourofday_embedding_weights/Slice_2"
  op: "Slice"
  input: "dnn/input_from_feature_columns/input_layer/dayofweek_X_hourofday_embedding/dayofweek_X_hourofday_embedding_weights/Shape_1"
  input: "dnn/input_from_feature_columns/input_layer/dayofweek_X_hourofday_embedding/dayofweek_X_hourofday_embedding_weights/Slice_2/begin"
  input: "dnn/input_from_feature_columns/input_layer/dayofweek_X_hourofday_embedding/dayofweek_X_hourofday_embedding_weights/Slice_2/size"
  attr {
    key: "Index"
    value {
      type: DT_INT32
    }
  }
  attr {
    key: "T"
    value {
      type: DT_INT32
    }
  }
  attr {
    key: "_output_shapes"
    value {
      list {
        shape {
          dim {
            size: 1
          }
        }
      }
…
        shape {
          dim {
            size: 168
          }
          dim {
            size: 1
          }
        }
        shape {
          dim {
            size: 168
          }
          dim {
            size: 1
          }
        }
        shape {
          dim {
            size: 256
          }
          dim {
            size: 1
          }
        }
        shape {
          dim {
            size: 256
          }
          dim {
            size: 1
          }
        }
        shape {
          dim {
            size: 256
          }
          dim {
            size: 1
          }
        }
        shape {
          dim {
            size: 65536
          }
          dim {
            size: 1
          }
        }
        shape {
          dim {
            size: 65536
          }
          dim {
            size: 1
          }
        }
        shape {
          dim {
            size: 65536
          }
          dim {
            size: 1
          }
        }
        shape {
          dim {
            size: 24
          }
          dim {
            size: 1
          }
        }
        shape {
          dim {
            size: 24
          }
          dim {
            size: 1
          }
        }
        shape {
          dim {
            size: 24
          }
          dim {
            size: 1
          }
        }
        shape {
          dim {
            size: 256
          }
          dim {
            size: 1
          }
        }
        shape {
          dim {
            size: 256
          }
          dim {
            size: 1
          }
        }
        shape {
          dim {
            size: 256
          }
          dim {
            size: 1
          }
        }
      }
    }
  }
  attr {
    key: "dtypes"
    value {
      list {
        type: DT_FLOAT
        type: DT_FLOAT
        type: DT_FLOAT
        type: DT_FLOAT
        type: DT_FLOAT
        type: DT_FLOAT
        type: DT_FLOAT
        type: DT_FLOAT
        type: DT_FLOAT
        type: DT_FLOAT
        type: DT_FLOAT
        type: DT_FLOAT
        type: DT_FLOAT
        type: DT_FLOAT
        type: DT_FLOAT
        type: DT_FLOAT
        type: DT_FLOAT
        type: DT_FLOAT
        type: DT_FLOAT
        type: DT_FLOAT
        type: DT_FLOAT
        type: DT_FLOAT
        type: DT_FLOAT
        type: DT_FLOAT
        type: DT_FLOAT
        type: DT_FLOAT
        type: DT_FLOAT
        type: DT_FLOAT
        type: DT_FLOAT
        type: DT_FLOAT
        type: DT_FLOAT
        type: DT_FLOAT
        type: DT_FLOAT
        type: DT_FLOAT
        type: DT_FLOAT
        type: DT_FLOAT
        type: DT_FLOAT
      }
    }
  }
}
node {
  name: "save/Identity_149"
  op: "Identity"
  input: "save/RestoreV2_1"
  device: "/device:CPU:0"
  attr {
    key: "T"
    value {
      type: DT_FLOAT
    }
  }
  attr {
    key: "_output_shapes"
    value {
      list {
        shape {
          dim {
            size: 10
          }
        }
      }
    }
  }
}
node {
  name: "save/AssignVariableOp"
  op: "AssignVariableOp"
  input: "dnn/hiddenlayer_0/bias/part_0"
  input: "save/Identity_149"
  device: "/device:CPU:0"
  attr {
    key: "dtype"
    value {
      type: DT_FLOAT
    }
  }
}
node {
  name: "save/Identity_150"
  op: "Identity"
  input: "save/RestoreV2_1:1"
  device: "/device:CPU:0"
  attr {
    key: "T"
    value {
      type: DT_FLOAT
    }
  }
  attr {
    key: "_output_shapes"
    value {
      list {
        shape {
          dim {
            size: 10
          }
        }
      }
    }
  }
}
node {
  name: "save/AssignVariableOp_1"
  op: "AssignVariableOp"
  input: "dnn/hiddenlayer_0/bias/part_0/Adagrad"
  input: "save/Identity_150"
  device: "/device:CPU:0"
  attr {
    key: "dtype"
    value {
      type: DT_FLOAT
    }
  }
}
node {
  name: "save/Identity_151"
  op: "Identity"
  input: "save/RestoreV2_1:2"
  device: "/device:CPU:0"
  attr {
    key: "T"
    value {
      type: DT_FLOAT
    }
  }
  attr {
    key: "_output_shapes"
    value {
      list {
        shape {
          dim {
            size: 195
          }
          dim {
            size: 10
          }
        }
      }
    }
  }
}
node {
  name: "save/AssignVariableOp_2"
  op: "AssignVariableOp"
  input: "dnn/hiddenlayer_0/kernel/part_0"
  input: "save/Identity_151"
  device: "/device:CPU:0"
  attr {
    key: "dtype"
    value {
      type: DT_FLOAT
    }
  }
}
node {
  name: "save/Identity_152"
  op: "Identity"
  input: "save/RestoreV2_1:3"
  device: "/device:CPU:0"
  attr {
    key: "T"
    value {
      type: DT_FLOAT
    }
  }
  attr {
    key: "_output_shapes"
    value {
      list {
        shape {
          dim {
            size: 195
          }
          dim {
            size: 10
          }
        }
      }
    }
  }
}
node {
  name: "save/AssignVariableOp_3"
  op: "AssignVariableOp"
  input: "dnn/hiddenlayer_0/kernel/part_0/Adagrad"
  input: "save/Identity_152"
  device: "/device:CPU:0"
  attr {
    key: "dtype"
    value {
      type: DT_FLOAT
    }
  }
}
node {
  name: "save/Identity_153"
  op: "Identity"
  input: "save/RestoreV2_1:4"
  device: "/device:CPU:0"
  attr {
    key: "T"
    value {
      type: DT_FLOAT
    }
  }
  attr {
    key: "_output_shapes"
    value {
      list {
        shape {
          dim {
            size: 10
          }
        }
      }
    }
  }
}
node {
  name: "save/AssignVariableOp_4"
  op: "AssignVariableOp"
  input: "dnn/hiddenlayer_1/bias/part_0"
  input: "save/Identity_153"
  device: "/device:CPU:0"
  attr {
    key: "dtype"
    value {
      type: DT_FLOAT
    }
  }
}
node {
  name: "save/Identity_154"
  op: "Identity"
  input: "save/RestoreV2_1:5"
  device: "/device:CPU:0"
  attr {
    key: "T"
    value {
      type: DT_FLOAT
    }
  }
  attr {
    key: "_output_shapes"
    value {
      list {
        shape {
          dim {
            size: 10
          }
        }
      }
    }
  }
}
node {
  name: "save/AssignVariableOp_5"
  op: "AssignVariableOp"
  input: "dnn/hiddenlayer_1/bias/part_0/Adagrad"
  input: "save/Identity_154"
  device: "/device:CPU:0"
  attr {
    key: "dtype"
    value {
      type: DT_FLOAT
    }
  }
}
node {
  name: "save/Identity_155"
  op: "Identity"
  input: "save/RestoreV2_1:6"
  device: "/device:CPU:0"
  attr {
    key: "T"
    value {
      type: DT_FLOAT
    }
  }
  attr {
    key: "_output_shapes"
    value {
      list {
        shape {
          dim {
            size: 10
          }
          dim {
            size: 10
          }
        }
      }
    }
  }
}
node {
  name: "save/AssignVariableOp_6"
  op: "AssignVariableOp"
  input: "dnn/hiddenlayer_1/kernel/part_0"
  input: "save/Identity_155"
  device: "/device:CPU:0"
  attr {
    key: "dtype"
    value {
      type: DT_FLOAT
    }
  }
}
node {
  name: "save/Identity_156"
  op: "Identity"
  input: "save/RestoreV2_1:7"
  device: "/device:CPU:0"
  attr {
    key: "T"
    value {
      type: DT_FLOAT
    }
  }
  attr {
    key: "_output_shapes"
    value {
      list {
        shape {
          dim {
            size: 10
          }
          dim {
            size: 10
          }
        }
      }
    }
  }
}
node {
  name: "save/AssignVariableOp_7"
  op: "AssignVariableOp"
  input: "dnn/hiddenlayer_1/kernel/part_0/Adagrad"
  input: "save/Identity_156"
  device: "/device:CPU:0"
  attr {
    key: "dtype"
    value {
      type: DT_FLOAT
    }
  }
}
node {
  name: "save/Identity_157"
  op: "Identity"
  input: "save/RestoreV2_1:8"
  device: "/device:CPU:0"
  attr {
    key: "T"
    value {
      type: DT_FLOAT
    }
  }
  attr {
    key: "_output_shapes"
    value {
      list {
        shape {
          dim {
            size: 168
          }
          dim {
            size: 10
          }
        }
      }
    }
  }
}
node {
  name: "save/AssignVariableOp_8"
  op: "AssignVariableOp"
  input: "dnn/input_from_feature_columns/input_layer/dayofweek_X_hourofday_embedding/embedding_weights/part_0"
  input: "save/Identity_157"
  device: "/device:CPU:0"
  attr {
    key: "dtype"
    value {
      type: DT_FLOAT
    }
  }
}
node {
  name: "save/Identity_158"
  op: "Identity"
  input: "save/RestoreV2_1:9"
  device: "/device:CPU:0"
  attr {
    key: "T"
    value {
      type: DT_FLOAT
    }
  }
  attr {
    key: "_output_shapes"
    value {
      list {
        shape {
          dim {
            size: 168
          }
          dim {
            size: 10
          }
        }
      }
    }
  }
}
node {
  name: "save/AssignVariableOp_9"
  op: "AssignVariableOp"
  input: "dnn/input_from_feature_columns/input_layer/dayofweek_X_hourofday_embedding/embedding_weights/part_0/Adagrad"
  input: "save/Identity_158"
  device: "/device:CPU:0"
  attr {
    key: "dtype"
    value {
      type: DT_FLOAT
    }
  }
}
node {
  name: "save/Identity_159"
  op: "Identity"
  input: "save/RestoreV2_1:10"
  device: "/device:CPU:0"
  attr {
    key: "T"
    value {
      type: DT_FLOAT
    }
  }
  attr {
    key: "_output_shapes"
    value {
      list {
        shape {
          dim {
            size: 65536
          }
          dim {
            size: 10
          }
        }
      }
    }
  }
}
node {
  name: "save/AssignVariableOp_10"
  op: "AssignVariableOp"
  input: "dnn/input_from_feature_columns/input_layer/dropofflat_bucketized_X_dropofflon_bucketized_X_pickuplat_bucketized_X_pickuplon_bucketized_embedding/embedding_weights/part_0"
  input: "save/Identity_159"
  device: "/device:CPU:0"
  attr {
    key: "dtype"
    value {
      type: DT_FLOAT
    }
  }
}
node {
  name: "save/Identity_160"
  op: "Identity"
  input: "save/RestoreV2_1:11"
  device: "/device:CPU:0"
  attr {
    key: "T"
    value {
      type: DT_FLOAT
    }
  }
  attr {
    key: "_output_shapes"
    value {
      list {
        shape {
          dim {
            size: 65536
          }
          dim {
            size: 10
          }
        }
      }
    }
  }
}
node {
  name: "save/AssignVariableOp_11"
  op: "AssignVariableOp"
  input: "dnn/input_from_feature_columns/input_layer/dropofflat_bucketized_X_dropofflon_bucketized_X_pickuplat_bucketized_X_pickuplon_bucketized_embedding/embedding_weights/part_0/Adagrad"
  input: "save/Identity_160"
  device: "/device:CPU:0"
  attr {
    key: "dtype"
    value {
      type: DT_FLOAT
    }
  }
}
node {
  name: "save/Identity_161"
  op: "Identity"
  input: "save/RestoreV2_1:12"
  device: "/device:CPU:0"
  attr {
    key: "T"
    value {
      type: DT_FLOAT
    }
  }
  attr {
    key: "_output_shapes"
    value {
      list {
        shape {
          dim {
            size: 1
          }
        }
      }
    }
  }
}
node {
  name: "save/AssignVariableOp_12"
  op: "AssignVariableOp"
  input: "dnn/logits/bias/part_0"
  input: "save/Identity_161"
  device: "/device:CPU:0"
  attr {
    key: "dtype"
    value {
      type: DT_FLOAT
    }
  }
}
node {
  name: "save/Identity_162"
  op: "Identity"
  input: "save/RestoreV2_1:13"
  device: "/device:CPU:0"
  attr {
    key: "T"
    value {
      type: DT_FLOAT
    }
  }
  attr {
    key: "_output_shapes"
    value {
      list {
        shape {
          dim {
            size: 1
          }
        }
      }
    }
  }
}
node {
  name: "save/AssignVariableOp_13"
  op: "AssignVariableOp"
  input: "dnn/logits/bias/part_0/Adagrad"
  input: "save/Identity_162"
  device: "/device:CPU:0"
  attr {
    key: "dtype"
    value {
      type: DT_FLOAT
    }
  }
}
node {
  name: "save/Identity_163"
  op: "Identity"
  input: "save/RestoreV2_1:14"
  device: "/device:CPU:0"
  attr {
    key: "T"
    value {
      type: DT_FLOAT
    }
  }
  attr {
    key: "_output_shapes"
    value {
      list {
        shape {
          dim {
            size: 10
          }
          dim {
            size: 1
          }
        }
      }
    }
  }
}
node {
  name: "save/AssignVariableOp_14"
  op: "AssignVariableOp"
  input: "dnn/logits/kernel/part_0"
  input: "save/Identity_163"
  device: "/device:CPU:0"
  attr {
    key: "dtype"
    value {
      type: DT_FLOAT
    }
  }
}
node {
  name: "save/Identity_164"
  op: "Identity"
  input: "save/RestoreV2_1:15"
  device: "/device:CPU:0"
  attr {
    key: "T"
    value {
      type: DT_FLOAT
    }
  }
  attr {
    key: "_output_shapes"
    value {
      list {
        shape {
          dim {
            size: 10
          }
          dim {
            size: 1
          }
        }
      }
    }
  }
}
node {
  name: "save/AssignVariableOp_15"
  op: "AssignVariableOp"
  input: "dnn/logits/kernel/part_0/Adagrad"
  input: "save/Identity_164"
  device: "/device:CPU:0"
  attr {
    key: "dtype"
    value {
      type: DT_FLOAT
    }
  }
}
node {
  name: "save/Identity_165"
  op: "Identity"
  input: "save/RestoreV2_1:16"
  device: "/device:CPU:0"
  attr {
    key: "T"
    value {
      type: DT_FLOAT
    }
  }
  attr {
    key: "_output_shapes"
    value {
      list {
        shape {
          dim {
            size: 1
          }
        }
      }
    }
  }
}
node {
  name: "save/AssignVariableOp_16"
  op: "AssignVariableOp"
  input: "linear/linear_model/bias_weights/part_0"
  input: "save/Identity_165"
  device: "/device:CPU:0"
  attr {
    key: "dtype"
    value {
      type: DT_FLOAT
    }
  }
}
node {
  name: "save/Identity_166"
  op: "Identity"
  input: "save/RestoreV2_1:17"
  device: "/device:CPU:0"
  attr {
    key: "T"
    value {
      type: DT_FLOAT
    }
  }
  attr {
    key: "_output_shapes"
    value {
      list {
        shape {
          dim {
            size: 1
          }
        }
      }
    }
  }
}
node {
  name: "save/AssignVariableOp_17"
  op: "AssignVariableOp"
  input: "linear/linear_model/bias_weights/part_0/Ftrl"
  input: "save/Identity_166"
  device: "/device:CPU:0"
  attr {
    key: "dtype"
    value {
      type: DT_FLOAT
    }
  }
}
node {
  name: "save/Identity_167"
  op: "Identity"
  input: "save/RestoreV2_1:18"
  device: "/device:CPU:0"
  attr {
    key: "T"
    value {
      type: DT_FLOAT
    }
  }
  attr {
    key: "_output_shapes"
    value {
      list {
        shape {
          dim {
            size: 1
          }
        }
      }
    }
  }
}
node {
  name: "save/AssignVariableOp_18"
  op: "AssignVariableOp"
  input: "linear/linear_model/bias_weights/part_0/Ftrl_1"
  input: "save/Identity_167"
  device: "/device:CPU:0"
  attr {
    key: "dtype"
    value {
      type: DT_FLOAT
    }
  }
}
node {
  name: "save/Identity_168"
  op: "Identity"
  input: "save/RestoreV2_1:19"
  device: "/device:CPU:0"
  attr {
    key: "T"
    value {
      type: DT_FLOAT
    }
  }
  attr {
    key: "_output_shapes"
    value {
      list {
        shape {
          dim {
            size: 7
          }
          dim {
            size: 1
          }
        }
      }
    }
  }
}
node {
  name: "save/AssignVariableOp_19"
  op: "AssignVariableOp"
  input: "linear/linear_model/dayofweek/weights/part_0"
  input: "save/Identity_168"
  device: "/device:CPU:0"
  attr {
    key: "dtype"
    value {
      type: DT_FLOAT
    }
  }
}
node {
  name: "save/Identity_169"
  op: "Identity"
  input: "save/RestoreV2_1:20"
  device: "/device:CPU:0"
  attr {
    key: "T"
    value {
      type: DT_FLOAT
    }
  }
  attr {
    key: "_output_shapes"
    value {
      list {
        shape {
          dim {
            size: 7
          }
          dim {
            size: 1
          }
        }
      }
    }
  }
}
node {
  name: "save/AssignVariableOp_20"
  op: "AssignVariableOp"
  input: "linear/linear_model/dayofweek/weights/part_0/Ftrl"
  input: "save/Identity_169"
  device: "/device:CPU:0"
  attr {
    key: "dtype"
    value {
      type: DT_FLOAT
    }
  }
}
node {
  name: "save/Identity_170"
  op: "Identity"
  input: "save/RestoreV2_1:21"
  device: "/device:CPU:0"
  attr {
    key: "T"
    value {
      type: DT_FLOAT
    }
  }
  attr {
    key: "_output_shapes"
    value {
      list {
        shape {
          dim {
            size: 7
          }
          dim {
            size: 1
          }
        }
      }
    }
  }
}
node {
  name: "save/AssignVariableOp_21"
  op: "AssignVariableOp"
  input: "linear/linear_model/dayofweek/weights/part_0/Ftrl_1"
  input: "save/Identity_170"
  device: "/device:CPU:0"
  attr {
    key: "dtype"
    value {
      type: DT_FLOAT
    }
  }
}
node {
  name: "save/Identity_171"
  op: "Identity"
  input: "save/RestoreV2_1:22"
  device: "/device:CPU:0"
  attr {
    key: "T"
    value {
      type: DT_FLOAT
    }
  }
  attr {
    key: "_output_shapes"
    value {
      list {
        shape {
          dim {
            size: 168
          }
          dim {
            size: 1
          }
        }
      }
    }
  }
}
node {
  name: "save/AssignVariableOp_22"
  op: "AssignVariableOp"
  input: "linear/linear_model/dayofweek_X_hourofday/weights/part_0"
  input: "save/Identity_171"
  device: "/device:CPU:0"
  attr {
    key: "dtype"
    value {
      type: DT_FLOAT
    }
  }
}
node {
  name: "save/Identity_172"
  op: "Identity"
  input: "save/RestoreV2_1:23"
  device: "/device:CPU:0"
  attr {
    key: "T"
    value {
      type: DT_FLOAT
    }
  }
  attr {
    key: "_output_shapes"
    value {
      list {
        shape {
          dim {
            size: 168
          }
          dim {
            size: 1
          }
        }
      }
    }
  }
}
node {
  name: "save/AssignVariableOp_23"
  op: "AssignVariableOp"
  input: "linear/linear_model/dayofweek_X_hourofday/weights/part_0/Ftrl"
  input: "save/Identity_172"
  device: "/device:CPU:0"
  attr {
    key: "dtype"
    value {
      type: DT_FLOAT
    }
  }
}
node {
  name: "save/Identity_173"
  op: "Identity"
  input: "save/RestoreV2_1:24"
  device: "/device:CPU:0"
  attr {
    key: "T"
    value {
      type: DT_FLOAT
    }
  }
  attr {
    key: "_output_shapes"
    value {
      list {
        shape {
          dim {
            size: 168
          }
          dim {
            size: 1
          }
        }
      }
    }
  }
}
node {
  name: "save/AssignVariableOp_24"
  op: "AssignVariableOp"
  input: "linear/linear_model/dayofweek_X_hourofday/weights/part_0/Ftrl_1"
  input: "save/Identity_173"
  device: "/device:CPU:0"
  attr {
    key: "dtype"
    value {
      type: DT_FLOAT
    }
  }
}
node {
  name: "save/Identity_174"
  op: "Identity"
  input: "save/RestoreV2_1:25"
  device: "/device:CPU:0"
  attr {
    key: "T"
    value {
      type: DT_FLOAT
    }
  }
  attr {
    key: "_output_shapes"
    value {
      list {
        shape {
          dim {
            size: 256
          }
          dim {
            size: 1
          }
        }
      }
    }
  }
}
node {
  name: "save/AssignVariableOp_25"
  op: "AssignVariableOp"
  input: "linear/linear_model/dropofflat_bucketized_X_dropofflon_bucketized/weights/part_0"
  input: "save/Identity_174"
  device: "/device:CPU:0"
  attr {
    key: "dtype"
    value {
      type: DT_FLOAT
    }
  }
}
node {
  name: "save/Identity_175"
  op: "Identity"
  input: "save/RestoreV2_1:26"
  device: "/device:CPU:0"
  attr {
    key: "T"
    value {
      type: DT_FLOAT
    }
  }
  attr {
    key: "_output_shapes"
    value {
      list {
        shape {
          dim {
            size: 256
          }
          dim {
            size: 1
          }
        }
      }
    }
  }
}
node {
  name: "save/AssignVariableOp_26"
  op: "AssignVariableOp"
  input: "linear/linear_model/dropofflat_bucketized_X_dropofflon_bucketized/weights/part_0/Ftrl"
  input: "save/Identity_175"
  device: "/device:CPU:0"
  attr {
    key: "dtype"
    value {
      type: DT_FLOAT
    }
  }
}
node {
  name: "save/Identity_176"
  op: "Identity"
  input: "save/RestoreV2_1:27"
  device: "/device:CPU:0"
  attr {
    key: "T"
    value {
      type: DT_FLOAT
    }
  }
  attr {
    key: "_output_shapes"
    value {
      list {
        shape {
          dim {
            size: 256
          }
          dim {
            size: 1
          }
        }
      }
    }
  }
}
node {
  name: "save/AssignVariableOp_27"
  op: "AssignVariableOp"
  input: "linear/linear_model/dropofflat_bucketized_X_dropofflon_bucketized/weights/part_0/Ftrl_1"
  input: "save/Identity_176"
  device: "/device:CPU:0"
  attr {
    key: "dtype"
    value {
      type: DT_FLOAT
    }
  }
}
node {
  name: "save/Identity_177"
  op: "Identity"
  input: "save/RestoreV2_1:28"
  device: "/device:CPU:0"
  attr {
    key: "T"
    value {
      type: DT_FLOAT
    }
  }
  attr {
    key: "_output_shapes"
    value {
      list {
        shape {
          dim {
            size: 65536
          }
          dim {
            size: 1
          }
        }
      }
    }
  }
}
node {
  name: "save/AssignVariableOp_28"
  op: "AssignVariableOp"
  input: "linear/linear_model/dropofflat_bucketized_X_dropofflon_bucketized_X_pickuplat_bucketized_X_pickuplon_bucketized/weights/part_0"
  input: "save/Identity_177"
  device: "/device:CPU:0"
  attr {
    key: "dtype"
    value {
      type: DT_FLOAT
    }
  }
}
node {
  name: "save/Identity_178"
  op: "Identity"
  input: "save/RestoreV2_1:29"
  device: "/device:CPU:0"
  attr {
    key: "T"
    value {
      type: DT_FLOAT
    }
  }
  attr {
    key: "_output_shapes"
    value {
      list {
        shape {
          dim {
            size: 65536
          }
          dim {
            size: 1
          }
        }
      }
    }
  }
}
node {
  name: "save/AssignVariableOp_29"
  op: "AssignVariableOp"
  input: "linear/linear_model/dropofflat_bucketized_X_dropofflon_bucketized_X_pickuplat_bucketized_X_pickuplon_bucketized/weights/part_0/Ftrl"
  input: "save/Identity_178"
  device: "/device:CPU:0"
  attr {
    key: "dtype"
    value {
      type: DT_FLOAT
    }
  }
}
node {
  name: "save/Identity_179"
  op: "Identity"
  input: "save/RestoreV2_1:30"
  device: "/device:CPU:0"
  attr {
    key: "T"
    value {
      type: DT_FLOAT
    }
  }
  attr {
    key: "_output_shapes"
    value {
      list {
        shape {
          dim {
            size: 65536
          }
          dim {
            size: 1
          }
        }
      }
    }
  }
}
node {
  name: "save/AssignVariableOp_30"
  op: "AssignVariableOp"
  input: "linear/linear_model/dropofflat_bucketized_X_dropofflon_bucketized_X_pickuplat_bucketized_X_pickuplon_bucketized/weights/part_0/Ftrl_1"
  input: "save/Identity_179"
  device: "/device:CPU:0"
  attr {
    key: "dtype"
    value {
      type: DT_FLOAT
    }
  }
}
node {
  name: "save/Identity_180"
  op: "Identity"
  input: "save/RestoreV2_1:31"
  device: "/device:CPU:0"
  attr {
    key: "T"
    value {
      type: DT_FLOAT
    }
  }
  attr {
    key: "_output_shapes"
    value {
      list {
        shape {
          dim {
            size: 24
          }
          dim {
            size: 1
          }
        }
      }
    }
  }
}
node {
  name: "save/AssignVariableOp_31"
  op: "AssignVariableOp"
  input: "linear/linear_model/hourofday/weights/part_0"
  input: "save/Identity_180"
  device: "/device:CPU:0"
  attr {
    key: "dtype"
    value {
      type: DT_FLOAT
    }
  }
}
node {
  name: "save/Identity_181"
  op: "Identity"
  input: "save/RestoreV2_1:32"
  device: "/device:CPU:0"
  attr {
    key: "T"
    value {
      type: DT_FLOAT
    }
  }
  attr {
    key: "_output_shapes"
    value {
      list {
        shape {
          dim {
            size: 24
          }
          dim {
            size: 1
          }
        }
      }
    }
  }
}
node {
  name: "save/AssignVariableOp_32"
  op: "AssignVariableOp"
  input: "linear/linear_model/hourofday/weights/part_0/Ftrl"
  input: "save/Identity_181"
  device: "/device:CPU:0"
  attr {
    key: "dtype"
    value {
      type: DT_FLOAT
    }
  }
}
node {
  name: "save/Identity_182"
  op: "Identity"
  input: "save/RestoreV2_1:33"
  device: "/device:CPU:0"
  attr {
    key: "T"
    value {
      type: DT_FLOAT
    }
  }
  attr {
    key: "_output_shapes"
    value {
      list {
        shape {
          dim {
            size: 24
          }
          dim {
            size: 1
          }
        }
      }
    }
  }
}
node {
  name: "save/AssignVariableOp_33"
  op: "AssignVariableOp"
  input: "linear/linear_model/hourofday/weights/part_0/Ftrl_1"
  input: "save/Identity_182"
  device: "/device:CPU:0"
  attr {
    key: "dtype"
    value {
      type: DT_FLOAT
    }
  }
}
node {
  name: "save/Identity_183"
  op: "Identity"
  input: "save/RestoreV2_1:34"
  device: "/device:CPU:0"
  attr {
    key: "T"
    value {
      type: DT_FLOAT
    }
  }
  attr {
    key: "_output_shapes"
    value {
      list {
        shape {
          dim {
            size: 256
          }
          dim {
            size: 1
          }
        }
      }
    }
  }
}
node {
  name: "save/AssignVariableOp_34"
  op: "AssignVariableOp"
  input: "linear/linear_model/pickuplat_bucketized_X_pickuplon_bucketized/weights/part_0"
  input: "save/Identity_183"
  device: "/device:CPU:0"
  attr {
    key: "dtype"
    value {
      type: DT_FLOAT
    }
  }
}
node {
  name: "save/Identity_184"
  op: "Identity"
  input: "save/RestoreV2_1:35"
  device: "/device:CPU:0"
  attr {
    key: "T"
    value {
      type: DT_FLOAT
    }
  }
  attr {
    key: "_output_shapes"
    value {
      list {
        shape {
          dim {
            size: 256
          }
          dim {
            size: 1
          }
        }
      }
    }
  }
}
node {
  name: "save/AssignVariableOp_35"
  op: "AssignVariableOp"
  input: "linear/linear_model/pickuplat_bucketized_X_pickuplon_bucketized/weights/part_0/Ftrl"
  input: "save/Identity_184"
  device: "/device:CPU:0"
  attr {
    key: "dtype"
    value {
      type: DT_FLOAT
    }
  }
}
node {
  name: "save/Identity_185"
  op: "Identity"
  input: "save/RestoreV2_1:36"
  device: "/device:CPU:0"
  attr {
    key: "T"
    value {
      type: DT_FLOAT
    }
  }
  attr {
    key: "_output_shapes"
    value {
      list {
        shape {
          dim {
            size: 256
          }
          dim {
            size: 1
          }
        }
      }
    }
  }
}
node {
  name: "save/AssignVariableOp_36"
  op: "AssignVariableOp"
  input: "linear/linear_model/pickuplat_bucketized_X_pickuplon_bucketized/weights/part_0/Ftrl_1"
  input: "save/Identity_185"
  device: "/device:CPU:0"
  attr {
    key: "dtype"
    value {
      type: DT_FLOAT
    }
  }
}
node {
  name: "save/restore_shard_1"
  op: "NoOp"
  input: "^save/AssignVariableOp"
  input: "^save/AssignVariableOp_1"
  input: "^save/AssignVariableOp_10"
  input: "^save/AssignVariableOp_11"
  input: "^save/AssignVariableOp_12"
  input: "^save/AssignVariableOp_13"
  input: "^save/AssignVariableOp_14"
  input: "^save/AssignVariableOp_15"
  input: "^save/AssignVariableOp_16"
  input: "^save/AssignVariableOp_17"
  input: "^save/AssignVariableOp_18"
  input: "^save/AssignVariableOp_19"
  input: "^save/AssignVariableOp_2"
  input: "^save/AssignVariableOp_20"
  input: "^save/AssignVariableOp_21"
  input: "^save/AssignVariableOp_22"
  input: "^save/AssignVariableOp_23"
  input: "^save/AssignVariableOp_24"
  input: "^save/AssignVariableOp_25"
  input: "^save/AssignVariableOp_26"
  input: "^save/AssignVariableOp_27"
  input: "^save/AssignVariableOp_28"
  input: "^save/AssignVariableOp_29"
  input: "^save/AssignVariableOp_3"
  input: "^save/AssignVariableOp_30"
  input: "^save/AssignVariableOp_31"
  input: "^save/AssignVariableOp_32"
  input: "^save/AssignVariableOp_33"
  input: "^save/AssignVariableOp_34"
  input: "^save/AssignVariableOp_35"
  input: "^save/AssignVariableOp_36"
  input: "^save/AssignVariableOp_4"
  input: "^save/AssignVariableOp_5"
  input: "^save/AssignVariableOp_6"
  input: "^save/AssignVariableOp_7"
  input: "^save/AssignVariableOp_8"
  input: "^save/AssignVariableOp_9"
  device: "/device:CPU:0"
}
node {
  name: "save/restore_all/NoOp"
  op: "NoOp"
  input: "^save/restore_shard"
}
node {
  name: "save/restore_all/NoOp_1"
  op: "NoOp"
  input: "^save/restore_shard_1"
  device: "/device:CPU:0"
}
node {
  name: "save/restore_all"
  op: "NoOp"
  input: "^save/restore_all/NoOp"
  input: "^save/restore_all/NoOp_1"
}
library {
  function {
    signature {
      name: "__inference_Dataset_flat_map_<lambda>_68"
      input_arg {
        name: "args_0"
        type: DT_STRING
      }
      output_arg {
        name: "identity"
        type: DT_VARIANT
      }
      is_stateful: true
      control_output: "TensorSliceDataset"
    }
    node_def {
      name: "flat_filenames/shape"
      op: "Const"
      attr {
        key: "_output_shapes"
        value {
          list {
            shape {
              dim {
                size: 1
              }
            }
          }
        }
      }
      attr {
        key: "dtype"
        value {
          type: DT_INT32
        }
      }
      attr {
        key: "value"
        value {
          tensor {
            dtype: DT_INT32
            tensor_shape {
              dim {
                size: 1
              }
            }
            int_val: -1
          }
        }
      }
    }
    node_def {
      name: "flat_filenames"
      op: "Reshape"
      input: "args_0"
      input: "flat_filenames/shape:output:0"
      attr {
        key: "T"
        value {
          type: DT_STRING
        }
      }
      attr {
        key: "Tshape"
        value {
          type: DT_INT32
        }
      }
      attr {
        key: "_output_shapes"
        value {
          list {
            shape {
              dim {
                size: 1
              }
            }
          }
        }
      }
    }
    node_def {
      name: "TensorSliceDataset"
      op: "TensorSliceDataset"
      input: "flat_filenames:output:0"
      attr {
        key: "Toutput_types"
        value {
          list {
            type: DT_STRING
          }
        }
      }
      attr {
        key: "_output_shapes"
        value {
          list {
            shape {
            }
          }
        }
      }
      attr {
        key: "output_shapes"
        value {
          list {
            shape {
            }
          }
        }
      }
    }
    node_def {
      name: "FlatMapDataset"
      op: "FlatMapDataset"
      input: "TensorSliceDataset:handle:0"
      attr {
        key: "Targuments"
        value {
          list {
          }
        }
      }
      attr {
        key: "_output_shapes"
        value {
          list {
            shape {
            }
          }
        }
      }
      attr {
        key: "f"
        value {
          func {
            name: "__inference_Dataset_flat_map_read_one_file_63"
          }
        }
      }
      attr {
        key: "output_shapes"
        value {
          list {
            shape {
            }
          }
        }
      }
      attr {
        key: "output_types"
        value {
          list {
            type: DT_STRING
          }
        }
      }
    }
    node_def {
      name: "count"
      op: "Const"
      attr {
        key: "_output_shapes"
        value {
          list {
            shape {
            }
          }
        }
      }
      attr {
        key: "dtype"
        value {
          type: DT_INT64
        }
      }
      attr {
        key: "value"
        value {
          tensor {
            dtype: DT_INT64
            tensor_shape {
            }
            int64_val: 1
          }
        }
      }
    }
    node_def {
      name: "SkipDataset"
      op: "SkipDataset"
      input: "FlatMapDataset:handle:0"
      input: "count:output:0"
      attr {
        key: "_output_shapes"
        value {
          list {
            shape {
            }
          }
        }
      }
      attr {
        key: "output_shapes"
        value {
          list {
            shape {
            }
          }
        }
      }
      attr {
        key: "output_types"
        value {
          list {
            type: DT_STRING
          }
        }
      }
    }
    node_def {
      name: "Identity"
      op: "Identity"
      input: "SkipDataset:handle:0"
      input: "^TensorSliceDataset"
      attr {
        key: "T"
        value {
          type: DT_VARIANT
        }
      }
      attr {
        key: "_output_shapes"
        value {
          list {
            shape {
            }
          }
        }
      }
    }
    ret {
      key: "identity"
      value: "Identity:output:0"
    }
    attr {
      key: "_input_shapes"
      value {
        list {
          shape {
          }
        }
      }
    }
    control_ret {
      key: "TensorSliceDataset"
      value: "TensorSliceDataset"
    }
    arg_attr {
      value {
        attr {
          key: "_user_specified_name"
          value {
            s: "args_0"
          }
        }
      }
    }
  }
  function {
    signature {
      name: "__inference_Dataset_flat_map_read_one_file_63"
      input_arg {
        name: "args_0"
        type: DT_STRING
      }
      output_arg {
        name: "identity"
        type: DT_VARIANT
      }
      is_stateful: true
      control_output: "TextLineDataset"
    }
    node_def {
      name: "compression_type"
      op: "Const"
      attr {
        key: "_output_shapes"
        value {
          list {
            shape {
            }
          }
        }
      }
      attr {
        key: "dtype"
        value {
          type: DT_STRING
        }
      }
      attr {
        key: "value"
        value {
          tensor {
            dtype: DT_STRING
            tensor_shape {
            }
            string_val: ""
          }
        }
      }
    }
    node_def {
      name: "buffer_size"
      op: "Const"
      attr {
        key: "_output_shapes"
        value {
          list {
            shape {
            }
          }
        }
      }
      attr {
        key: "dtype"
        value {
          type: DT_INT64
        }
      }
      attr {
        key: "value"
        value {
          tensor {
            dtype: DT_INT64
            tensor_shape {
            }
            int64_val: 262144
          }
        }
      }
    }
    node_def {
      name: "TextLineDataset"
      op: "TextLineDataset"
      input: "args_0"
      input: "compression_type:output:0"
      input: "buffer_size:output:0"
      attr {
        key: "_output_shapes"
        value {
          list {
            shape {
            }
          }
        }
      }
    }
    node_def {
      name: "Identity"
      op: "Identity"
      input: "TextLineDataset:handle:0"
      input: "^TextLineDataset"
      attr {
        key: "T"
        value {
          type: DT_VARIANT
        }
      }
      attr {
        key: "_output_shapes"
        value {
          list {
            shape {
            }
          }
        }
      }
    }
    ret {
      key: "identity"
      value: "Identity:output:0"
    }
    attr {
      key: "_input_shapes"
      value {
        list {
          shape {
          }
        }
      }
    }
    control_ret {
      key: "TextLineDataset"
      value: "TextLineDataset"
    }
    arg_attr {
      value {
        attr {
          key: "_user_specified_name"
          value {
            s: "args_0"
          }
        }
      }
    }
  }
  function {
    signature {
      name: "__inference_Dataset_map__parse_row_106"
      input_arg {
        name: "args_0"
        type: DT_STRING
      }
      output_arg {
        name: "identity"
        type: DT_INT32
      }
      output_arg {
        name: "identity_1"
        type: DT_FLOAT
      }
      output_arg {
        name: "identity_2"
        type: DT_FLOAT
      }
      output_arg {
        name: "identity_3"
        type: DT_FLOAT
      }
      output_arg {
        name: "identity_4"
        type: DT_INT32
      }
      output_arg {
        name: "identity_5"
        type: DT_FLOAT
      }
      output_arg {
        name: "identity_6"
        type: DT_FLOAT
      }
      output_arg {
        name: "identity_7"
        type: DT_FLOAT
      }
      output_arg {
        name: "identity_8"
        type: DT_FLOAT
      }
      output_arg {
        name: "identity_9"
        type: DT_FLOAT
      }
    }
    node_def {
      name: "DecodeCSV/record_defaults_0"
      op: "Const"
      attr {
        key: "_output_shapes"
        value {
          list {
            shape {
              dim {
                size: 1
              }
            }
          }
        }
      }
      attr {
        key: "dtype"
        value {
          type: DT_FLOAT
        }
      }
      attr {
        key: "value"
        value {
          tensor {
            dtype: DT_FLOAT
            tensor_shape {
              dim {
                size: 1
              }
            }
            float_val: 0.0
          }
        }
      }
    }
    node_def {
      name: "DecodeCSV/record_defaults_1"
      op: "Const"
      attr {
        key: "_output_shapes"
        value {
          list {
            shape {
              dim {
                size: 1
              }
            }
          }
        }
      }
      attr {
        key: "dtype"
        value {
          type: DT_INT32
        }
      }
      attr {
        key: "value"
        value {
          tensor {
            dtype: DT_INT32
            tensor_shape {
              dim {
                size: 1
              }
            }
            int_val: 1
          }
        }
      }
    }
    node_def {
      name: "DecodeCSV/record_defaults_2"
      op: "Const"
      attr {
        key: "_output_shapes"
        value {
          list {
            shape {
              dim {
                size: 1
              }
            }
          }
        }
      }
      attr {
        key: "dtype"
        value {
          type: DT_INT32
        }
      }
      attr {
        key: "value"
        value {
          tensor {
            dtype: DT_INT32
            tensor_shape {
              dim {
                size: 1
              }
            }
            int_val: 0
          }
        }
      }
    }
    node_def {
      name: "DecodeCSV/record_defaults_3"
      op: "Const"
      attr {
        key: "_output_shapes"
        value {
          list {
            shape {
              dim {
                size: 1
              }
            }
          }
        }
      }
      attr {
        key: "dtype"
        value {
          type: DT_FLOAT
        }
      }
      attr {
        key: "value"
        value {
          tensor {
            dtype: DT_FLOAT
            tensor_shape {
              dim {
                size: 1
              }
            }
            float_val: -74.0
          }
        }
      }
    }
    node_def {
      name: "DecodeCSV/record_defaults_4"
      op: "Const"
      attr {
        key: "_output_shapes"
        value {
          list {
            shape {
              dim {
                size: 1
              }
            }
          }
        }
      }
      attr {
        key: "dtype"
        value {
          type: DT_FLOAT
        }
      }
      attr {
        key: "value"
        value {
          tensor {
            dtype: DT_FLOAT
            tensor_shape {
              dim {
                size: 1
              }
            }
            float_val: 40.0
          }
        }
      }
    }
    node_def {
      name: "DecodeCSV/record_defaults_5"
      op: "Const"
      attr {
        key: "_output_shapes"
        value {
          list {
            shape {
              dim {
                size: 1
              }
            }
          }
        }
      }
      attr {
        key: "dtype"
        value {
          type: DT_FLOAT
        }
      }
      attr {
        key: "value"
        value {
          tensor {
            dtype: DT_FLOAT
            tensor_shape {
              dim {
                size: 1
              }
            }
            float_val: -74.0
          }
        }
      }
    }
    node_def {
      name: "DecodeCSV/record_defaults_6"
      op: "Const"
      attr {
        key: "_output_shapes"
        value {
          list {
            shape {
              dim {
                size: 1
              }
            }
          }
        }
      }
      attr {
        key: "dtype"
        value {
          type: DT_FLOAT
        }
      }
      attr {
        key: "value"
        value {
          tensor {
            dtype: DT_FLOAT
            tensor_shape {
              dim {
                size: 1
              }
            }
            float_val: 40.70000076293945
          }
        }
      }
    }
    node_def {
      name: "DecodeCSV"
      op: "DecodeCSV"
      input: "args_0"
      input: "DecodeCSV/record_defaults_0:output:0"
      input: "DecodeCSV/record_defaults_1:output:0"
      input: "DecodeCSV/record_defaults_2:output:0"
      input: "DecodeCSV/record_defaults_3:output:0"
      input: "DecodeCSV/record_defaults_4:output:0"
      input: "DecodeCSV/record_defaults_5:output:0"
      input: "DecodeCSV/record_defaults_6:output:0"
      attr {
        key: "OUT_TYPE"
        value {
          list {
            type: DT_FLOAT
            type: DT_INT32
            type: DT_INT32
            type: DT_FLOAT
            type: DT_FLOAT
            type: DT_FLOAT
            type: DT_FLOAT
          }
        }
      }
      attr {
        key: "_output_shapes"
        value {
          list {
            shape {
            }
            shape {
            }
            shape {
            }
            shape {
            }
            shape {
            }
            shape {
            }
            shape {
            }
          }
        }
      }
      attr {
        key: "field_delim"
        value {
          s: ","
        }
      }
      attr {
        key: "na_value"
        value {
          s: ""
        }
      }
      attr {
        key: "select_cols"
        value {
          list {
          }
        }
      }
      attr {
        key: "use_quote_delim"
        value {
          b: true
        }
      }
    }
    node_def {
      name: "sub/y"
      op: "Const"
      attr {
        key: "_output_shapes"
        value {
          list {
            shape {
            }
          }
        }
      }
      attr {
        key: "dtype"
        value {
          type: DT_INT32
        }
      }
      attr {
        key: "value"
        value {
          tensor {
            dtype: DT_INT32
            tensor_shape {
            }
            int_val: 1
          }
        }
      }
    }
    node_def {
      name: "sub"
      op: "Sub"
      input: "DecodeCSV:output:1"
      input: "sub/y:output:0"
      attr {
        key: "T"
        value {
          type: DT_INT32
        }
      }
      attr {
        key: "_output_shapes"
        value {
          list {
            shape {
            }
          }
        }
      }
    }
    node_def {
      name: "sub_1"
      op: "Sub"
      input: "DecodeCSV:output:4"
      input: "DecodeCSV:output:6"
      attr {
        key: "T"
        value {
          type: DT_FLOAT
        }
      }
      attr {
        key: "_output_shapes"
        value {
          list {
            shape {
            }
          }
        }
      }
    }
    node_def {
      name: "sub_2"
      op: "Sub"
      input: "DecodeCSV:output:3"
      input: "DecodeCSV:output:5"
      attr {
        key: "T"
        value {
          type: DT_FLOAT
        }
      }
      attr {
        key: "_output_shapes"
        value {
          list {
            shape {
            }
          }
        }
      }
    }
    node_def {
      name: "pow/y"
      op: "Const"
      attr {
        key: "_output_shapes"
        value {
          list {
            shape {
            }
          }
        }
      }
      attr {
        key: "dtype"
        value {
          type: DT_FLOAT
        }
      }
      attr {
        key: "value"
        value {
          tensor {
            dtype: DT_FLOAT
            tensor_shape {
            }
            float_val: 2.0
          }
        }
      }
    }
    node_def {
      name: "pow"
      op: "Pow"
      input: "sub_1:z:0"
      input: "pow/y:output:0"
      attr {
        key: "T"
        value {
          type: DT_FLOAT
        }
      }
      attr {
        key: "_output_shapes"
        value {
          list {
            shape {
            }
          }
        }
      }
    }
    node_def {
      name: "pow_1/y"
      op: "Const"
      attr {
        key: "_output_shapes"
        value {
          list {
            shape {
            }
          }
        }
      }
      attr {
        key: "dtype"
        value {
          type: DT_FLOAT
        }
      }
      attr {
        key: "value"
        value {
          tensor {
            dtype: DT_FLOAT
            tensor_shape {
            }
            float_val: 2.0
          }
        }
      }
    }
    node_def {
      name: "pow_1"
      op: "Pow"
      input: "sub_2:z:0"
      input: "pow_1/y:output:0"
      attr {
        key: "T"
        value {
          type: DT_FLOAT
        }
      }
      attr {
        key: "_output_shapes"
        value {
          list {
            shape {
            }
          }
        }
      }
    }
    node_def {
      name: "add"
      op: "AddV2"
      input: "pow:z:0"
      input: "pow_1:z:0"
      attr {
        key: "T"
        value {
          type: DT_FLOAT
        }
      }
      attr {
        key: "_output_shapes"
        value {
          list {
            shape {
            }
          }
        }
      }
    }
    node_def {
      name: "Sqrt"
      op: "Sqrt"
      input: "add:z:0"
      attr {
        key: "T"
        value {
          type: DT_FLOAT
        }
      }
      attr {
        key: "_output_shapes"
        value {
          list {
            shape {
            }
          }
        }
      }
    }
    node_def {
      name: "Identity"
      op: "Identity"
      input: "sub:z:0"
      attr {
        key: "T"
        value {
          type: DT_INT32
        }
      }
      attr {
        key: "_output_shapes"
        value {
          list {
            shape {
            }
          }
        }
      }
    }
    node_def {
      name: "Identity_1"
      op: "Identity"
      input: "DecodeCSV:output:6"
      attr {
        key: "T"
        value {
          type: DT_FLOAT
        }
      }
      attr {
        key: "_output_shapes"
        value {
          list {
            shape {
            }
          }
        }
      }
    }
    node_def {
      name: "Identity_2"
      op: "Identity"
      input: "DecodeCSV:output:5"
      attr {
        key: "T"
        value {
          type: DT_FLOAT
        }
      }
      attr {
        key: "_output_shapes"
        value {
          list {
            shape {
            }
          }
        }
      }
    }
    node_def {
      name: "Identity_3"
      op: "Identity"
      input: "Sqrt:y:0"
      attr {
        key: "T"
        value {
          type: DT_FLOAT
        }
      }
      attr {
        key: "_output_shapes"
        value {
          list {
            shape {
            }
          }
        }
      }
    }
    node_def {
      name: "Identity_4"
      op: "Identity"
      input: "DecodeCSV:output:2"
      attr {
        key: "T"
        value {
          type: DT_INT32
        }
      }
      attr {
        key: "_output_shapes"
        value {
          list {
            shape {
            }
          }
        }
      }
    }
    node_def {
      name: "Identity_5"
      op: "Identity"
      input: "sub_1:z:0"
      attr {
        key: "T"
        value {
          type: DT_FLOAT
        }
      }
      attr {
        key: "_output_shapes"
        value {
          list {
            shape {
            }
          }
        }
      }
    }
    node_def {
      name: "Identity_6"
      op: "Identity"
      input: "sub_2:z:0"
      attr {
        key: "T"
        value {
          type: DT_FLOAT
        }
      }
      attr {
        key: "_output_shapes"
        value {
          list {
            shape {
            }
          }
        }
      }
    }
    node_def {
      name: "Identity_7"
      op: "Identity"
      input: "DecodeCSV:output:4"
      attr {
        key: "T"
        value {
          type: DT_FLOAT
        }
      }
      attr {
        key: "_output_shapes"
        value {
          list {
            shape {
            }
          }
        }
      }
    }
    node_def {
      name: "Identity_8"
      op: "Identity"
      input: "DecodeCSV:output:3"
      attr {
        key: "T"
        value {
          type: DT_FLOAT
        }
      }
      attr {
        key: "_output_shapes"
        value {
          list {
            shape {
            }
          }
        }
      }
    }
    node_def {
      name: "Identity_9"
      op: "Identity"
      input: "DecodeCSV:output:0"
      attr {
        key: "T"
        value {
          type: DT_FLOAT
        }
      }
      attr {
        key: "_output_shapes"
        value {
          list {
            shape {
            }
          }
        }
      }
    }
    ret {
      key: "identity"
      value: "Identity:output:0"
    }
    ret {
      key: "identity_1"
      value: "Identity_1:output:0"
    }
    ret {
      key: "identity_2"
      value: "Identity_2:output:0"
    }
    ret {
      key: "identity_3"
      value: "Identity_3:output:0"
    }
    ret {
      key: "identity_4"
      value: "Identity_4:output:0"
    }
    ret {
      key: "identity_5"
      value: "Identity_5:output:0"
    }
    ret {
      key: "identity_6"
      value: "Identity_6:output:0"
    }
    ret {
      key: "identity_7"
      value: "Identity_7:output:0"
    }
    ret {
      key: "identity_8"
      value: "Identity_8:output:0"
    }
    ret {
      key: "identity_9"
      value: "Identity_9:output:0"
    }
    attr {
      key: "_input_shapes"
      value {
        list {
          shape {
          }
        }
      }
    }
    arg_attr {
      value {
        attr {
          key: "_user_specified_name"
          value {
            s: "args_0"
          }
        }
      }
    }
  }
}
versions {
  producer: 134
  min_consumer: 12
}
